20251015/rnn_model.pth (torch, 19996 bytes, 5 tensors)

rnn.weight_ih_l0 f4 [64, 1]
-0.056695834 -0.0060688974 -0.11576214 -0.024960551 0.08334212 -0.045845494 -0.09763188 0.065412514
0.08820008 -0.052696574 -0.021866404 0.150699 -0.14270368 0.113687046 0.09569793 -0.06113951
-0.07154114 -0.14238994 0.06416358 0.17517868 -0.04122578 0.09099372 0.021172874 -0.14649513
0.10759571 -0.13166134 -0.021216271 0.05210999 0.009408979 -0.04308355 0.09566892 0.112487726
0.12743405 0.024516976 0.060587756 -0.03514385 -0.026263954 -0.11012594 0.049995158 -0.11520712
0.10733337 -0.15537606 0.080340244 0.037643533 -0.08560344 -0.082431376 -0.11632026 0.045403246
0.09091112 -0.08252556 0.0449342 -0.14634633 -0.0822082 -0.011974625 -0.012859459 -0.08773506
-0.052289627 -0.07424841 0.1547807 -0.055148307 0.11782849 -0.084210895 -0.1313543 0.11461957
00000000: e439 68bd 9add c6bb b314 edbd 127a ccbc
00000010: 46af aa3d 7cc8 3bbd 39f3 c7bd fff6 853d
00000020: 3ea2 b43d 5dd8 57bd 2c21 b3bc d750 1a3e
00000030: ea20 12be c1d4 e83d 47fd c33d 6c6d 7abd
00000040: 2984 92bd abce 11be 3268 833d 0a62 333e
00000050: 5ddc 28bd ea5a ba3d bc72 ad3c d202 16be
00000060: 245b dc3d 3bd2 06be bfcd adbc 4971 553d
00000070: 1e28 1a3c 6078 30bd 11ee c33d f75f e63d
00000080: 127e 023e d3d7 c83c de2a 783d fff2 0fbd
00000090: 8127 d7bc b589 e1bd b9c7 4c3d b6f1 ebbd
000000a0: 99d1 db3d e71a 1fbe 6d89 a43d 1b30 1a3d
000000b0: db50 afbd c8d1 a8bd 5139 eebd c1f8 393d
000000c0: 9c2f ba3d 2903 a9bd ec0c 383d d0db 15be
000000d0: c65c a8bd 3831 44bc 7bb0 52bc 70ae b3bd
000000e0: a62d 56bd 8d0f 98bd d57e 1e3e 31e3 61bd
000000f0: 1050 f13d c376 acbd be81 06be aabd ea3d

rnn.weight_hh_l0 f4 [64, 64]
0.06596298 0.060601253 -0.0451321 -0.014626302 0.1002929 -0.039768647 0.09948716 -0.0026110378
-0.065623544 -0.03362449 -0.111599654 -0.040660433 0.050022643 -0.01624965 0.0027752481 -0.034216724
0.043963056 -0.11907272 -0.091316506 -0.018115502 -0.07899736 0.016297141 0.11204576 0.020916076
0.003079092 -0.009131746 0.037446264 0.010423077 -0.040932238 -0.016765118 0.016478011 -0.03673741
-0.11131754 -0.11369003 -0.04824398 0.0677182 0.013977239 0.0060605295 -0.09132583 0.014219367
0.047021586 -0.030048843 0.032533027 -0.10364345 -0.11091412 0.050623678 -0.13432403 0.08998547
0.024045981 0.01564847 -0.090496935 0.09800838 -0.062303673 -0.06961489 0.117456876 -0.053798445
0.04750285 -0.08274916 0.08604026 -0.09495258 0.12035706 -0.019301595 -0.031244729 -0.019599224
-0.13739397 0.04415393 0.11966627 -0.11897735 -0.004643218 0.063203774 0.03409177 -0.010234804
-0.035335742 -0.034301393 0.13789997 -0.12344268 0.10714461 0.054756038 0.0986696 0.005657906
-0.06783661 -0.029965496 -0.025352847 -0.038063847 -0.05051783 0.07115021 -0.00016058542 0.10595922
-0.007640749 0.11196574 -0.08524846 -0.034396764 0.010276951 0.067858964 -0.12376189 -0.060340896
-0.050950658 -0.04256063 -0.06015262 0.115738116 -0.0168163 0.042457376 -0.110196404 0.08515838
0.061796583 -0.00670699 -0.09072293 -0.12496746 -0.09356562 -0.047480486 -0.019706225 -0.060026564
0.027093714 -0.074396014 -0.0970052 0.041350197 -0.09645413 -0.078827314 -0.050689116 0.07709687
0.12785208 0.048121225 -0.007355995 0.06905935 -0.0657741 0.11437977 0.14076717 -0.064763345
0.04297538 0.035648253 0.040722005 0.12749824 0.022059457 0.010501715 0.12538278 -0.09223967
0.039167333 0.042721678 -0.03101694 -0.114882186 -0.029682787 -0.1070945 -0.09007787 -0.085527994
0.011602788 -0.05687234 0.03583228 -0.054619886 -0.093269244 -0.11229337 -0.047556493 0.10334083
-0.04320215 0.09413623 -0.061410584 -0.045425817 0.0016794134 -0.014933248 0.06954733 -0.08454849
0.0061792457 -0.093421616 0.1168723 0.023448994 0.050454434 0.10181244 -0.13160296 0.06286352
0.073952384 -0.07521785 0.03670869 -0.013376699 0.09868324 0.075759985 0.07164429 -0.04664966
-0.049396917 0.13656063 -0.077212274 0.059113212 0.12915145 -0.07903467 0.027731579 -0.015410965
-0.08408685 -0.004931569 -0.10434484 -0.094747856 -0.14807597 0.11804605 0.012624673 -0.0039198296
-0.12458296 0.09250203 -0.017189939 0.048110824 -0.092741705 0.069786586 0.12335405 0.05202134
0.0049624084 -0.07904562 0.0650559 0.112533376 0.021425193 0.04662882 0.046471346 -0.10601433
0.1337188 0.12389326 0.07566529 -0.011715644 0.11507277 -0.060682848 -0.015976645 0.06446369
0.017256482 -0.08909612 0.09380029 -0.109420836 -0.10796605 -0.03604552 -0.056879964 0.0138764065
0.060491644 -0.08431043 -0.054596372 -0.068502456 -0.11624751 0.09411198 -0.046221625 0.05233283
0.038848832 0.05616823 -0.11347232 0.052697156 0.0288267 0.060790084 0.08597393 -0.14439294
-0.026395122 0.10546916 0.0030278128 -0.07672879 0.009756756 -0.028872859 -0.099596985 -0.09486851
0.12342828 -0.097584166 0.026570426 -0.006001203 0.09509492 -0.03430972 -0.07080631 0.09001554
00000000: 9917 873d 0539 783d 70dc 38bd 28a3 6fbc
00000010: 5d66 cd3d 73e4 22bd edbf cb3d f21d 2bbb
00000020: a365 86bd d5b9 09bd 5c8e e4bd 8e8b 26bd
00000030: 8be4 4c3d fc1d 85bc f0e0 353b d626 0cbd
00000040: 9b12 343d 66dc f3bd 2604 bbbd f666 94bc
00000050: 5ec9 a1bd 9581 853c 3f78 e53d 3158 ab3c
00000060: 97ca 493b 529d 15bc 4161 193d 8ec5 2a3c
00000070: 90a8 27bd 0057 89bc e5fc 863c f779 16bd
00000080: 73fa e3bd 52d6 e8bd 7b9b 45bd d7af 8a3d
00000090: ca00 653c 6897 c63b 0909 bbbd 59f8 683c
000000a0: b599 403d fe28 f6bc 5a41 053d 0443 d4bd
000000b0: f126 e3bd c65a 4f3d 3d8c 09be 4d4a b83d
000000c0: 14fc c43c 3831 803c 7556 b9bd 9eb8 c83d
000000d0: 2332 7fbd 4092 8ebd 3b8d f03d c25b 5cbd
000000e0: 5992 423d 6478 a9bd e035 b03d 8076 c2bd
000000f0: c37d f63d 611e 9ebc f2f4 ffbc 8d8e a0bc
00000100: 01b1 0cbe c0da 343d 9713 f53d 66aa f3bd
00000110: 2326 98bb fb70 813d d0a3 0b3d e1af 27bc
00000120: 36bc 10bd 9e7f 0cbd a635 0d3e 84cf fcbd
00000130: a26e db3d de47 603d 4a13 ca3d f565 b93b
00000140: eced 8abd 337a f5bc c6b0 cfbc d6e8 1bbd
00000150: c9eb 4ebd 34b7 913d d262 28b9 2601 d93d
00000160: 405f fabb 4b4e e53d bf96 aebd 9fe3 0cbd
00000170: a860 283c a4f9 8a3d e076 fdbd 0428 77bd
00000180: a3b1 50bd 0e54 2ebd 9862 76bd 1b08 ed3d
00000190: 56c2 89bc c9e7 2d3d a7ae e1bd 8467 ae3d
000001a0: 6a1e 7d3d 4fc6 dbbb f2cc b9bd f1ee ffbd
000001b0: 559f bfbd e67a 42bd f36e a1bc 6ade 75bd
000001c0: a3f3 dd3c f05c 98bd aaaa c6bd d35e 293d
000001d0: be89 c5bd 3770 a1bd 649f 4fbd f7e4 9d3d
000001e0: a8eb 023e c31a 453d 8f0a f1bb fd6e 8d3d
000001f0: 92b4 86bd f13f ea3d 4525 103e a5a2 84bd
00000200: f406 303d e703 123d 1ecc 263d e68e 023e
00000210: 09b6 b43c 630f 2c3c 5864 003e 27e8 bcbd
00000220: ed6d 203d edfc 2e3d 3d17 febc 5a47 ebbd
00000230: 5129 f3bc 5c54 dbbd bf7a b8bd 4d29 afbd
00000240: 9f19 3e3c f9f2 68bd dec4 123d 1ab9 5fbd
00000250: f203 bfbd 11fa e5bd 99ca 42bd 5ba4 d33d
00000260: bdf4 30bd 7fca c03d aa89 7bbd 6c10 3abd
00000270: c31f dc3a 95aa 74bc d56e 8e3d c227 adbd
00000280: 457b ca3b d553 bfbd bf5a ef3d 1b18 c03c
00000290: 4fa9 4e3d 0a83 d03d edc2 06be 97be 803d
000002a0: 5974 973d d10b 9abd da5b 163d f129 5bbc
000002b0: 701a ca3d 0d28 9b3d 3eba 923d b713 3fbd
000002c0: 6c54 4abd 8dd6 0b3e 7821 9ebd b220 723d
000002d0: 4740 043e eedc a1bd 562d e33c 467e 7cbc
000002e0: ba35 acbd 0099 a1bb bfb2 d5bd 2a0b c2bd
000002f0: 3aa1 17be 21c2 f13d b7d7 4e3c ea71 80bb
00000300: 5a25 ffbd b471 bd3d ead1 8cbc db0f 453d
00000310: 5def bdbd 45ec 8e3d 0ca1 fc3d 5414 553d
00000320: b39b a23b ace2 a1bd 073c 853d e677 e63d
00000330: e383 af3c ddfd 3e3d bd58 3e3d 0b1e d9bd
00000340: 95ed 083e c0bb fd3d 67f6 9a3d f9f2 3fbc
00000350: 46ab eb3d 948e 78bd 74e1 82bc 8a05 843d
00000360: 775d 8d3c 0778 b6bd 5e1a c03d 0818 e0bd
00000370: 4e1d ddbd 78a4 13bd f7fa 68bd de59 633c
00000380: 16c6 773d f2aa acbd 72a0 5fbd 044b 8cbd
00000390: 2d13 eebd c8bd c03d e352 3dbd f35a 563d
000003a0: f41f 1f3d a810 663d 2d64 e8bd f9d8 573d
000003b0: f925 ec3c 06ff 783d 1a13 b03d bedb 13be
000003c0: 953a d8bc 3700 d83d 456e 463b fc23 9dbd
000003d0: cdda 1f3c c686 ecbc 81f9 cbbd 6c4a c2bd
000003e0: f7c7 fc3d 35da c7bd 39aa d93c bda5 c4bb
000003f0: 20c1 c23d 5988 0cbd e602 91bd 115a b83d

rnn.bias_ih_l0 f4 [64]
-0.05353074 0.04133395 -0.010308293 0.09019561 0.11854941 -0.10653865 -0.116443716 0.064929314
0.08029707 -0.04974254 -0.08513151 -0.027025264 -0.107889056 -0.09422103 0.03647111 0.08848988
-0.034172945 -0.017034495 -0.06236992 -0.0052018524 0.08657693 0.0017920776 -0.11330702 0.035967752
0.060263645 -0.02306543 -0.037123825 -0.06787298 0.043086044 -0.03535607 0.041341063 0.10844666
0.038501564 0.04905084 0.10314074 -0.034867436 -0.07199394 0.017131347 -0.015628817 0.03524233
-0.09724036 -0.05181743 0.10442089 0.020342585 -0.024898138 0.084554784 0.048959214 -0.021425087
-0.12269996 -0.047724087 0.12269082 0.031943686 -0.09568876 0.03276617 0.05866766 -0.01870843
-0.06523361 0.045701865 0.12059688 0.08370207 -0.103928216 -0.022013867 0.072542354 0.12044525
00000000: 0d43 5bbd ca4d 293d 1de4 28bc 7ab8 b83d
00000010: 08ca f23d f030 dabd 0b7a eebd a9f9 843d
00000020: ca72 a43d d5be 4bbd 6e59 aebd 1664 ddbc
00000030: f0f4 dcbd f5f6 c0bd bb62 153d 2f3a b53d
00000040: eef8 0bbd ed8b 8bbc 9a77 7fbd 4d74 aabb
00000050: 3f4f b13d 25e4 ea3a 830d e8bd ec52 133d
00000060: 03d7 763d b6f3 bcbc 270f 18bd fd00 8bbd
00000070: fe7a 303d 87d1 10bd 3f55 293d 4819 de3d
00000080: d1b3 1d3d 89e9 483d 743b d33d 28d1 0ebd
00000090: 8f71 93bd 0a57 8c3c 0108 80bc 435a 103d
000000a0: f425 c7bd 833e 54bd 9fda d53d 7ea5 a63c
000000b0: 2ef7 cbbc 0f2b ad3d 7589 483d aa83 afbc
000000c0: 1e4a fbbd 557a 43bd 5345 fb3d 62d7 023d
000000d0: 78f8 c3bd d235 063d 804d 703d 6c42 99bc
000000e0: 3399 85bd e131 3b3d 7ffb f63d fe6b ab3d
000000f0: 51d8 d4bd 6d56 b4bc 1691 943d 00ac f63d

rnn.bias_hh_l0 f4 [64]
0.06352475 0.070537835 0.032933857 0.0070868046 -0.026060186 -0.101127364 0.11357192 0.011265565
-0.09787431 -0.075293556 -0.052517395 -0.07038291 0.01378546 0.09723882 -0.10721408 -0.06755204
0.016693695 0.006708858 -0.008948717 0.010734649 -0.06783587 -0.060101956 0.107294366 0.120709464
-0.06831096 0.011088111 0.061500724 0.047942776 -0.013018132 -0.056581896 -0.007270418 -0.11557529
0.009058785 0.062397353 -0.096252084 -0.024332099 0.07805103 -0.016421564 0.035397816 -0.026188377
0.00448149 0.020551216 0.027827749 -0.0077536553 0.043165606 0.072673276 0.055651143 0.08919132
0.0124679385 -0.114014186 0.0020476207 0.056270476 0.09331472 0.017398678 -0.09451415 -0.048193783
0.04361201 -0.023492498 -0.039171387 -0.040691905 -0.010733176 0.020958737 -0.11330278 -0.096669875
00000000: 4419 823d 2476 903d a7e5 063d 6d38 e83b
00000010: 2c7c d5bc dd1b cfbd 6598 e83d 3493 383c
00000020: 5472 c8bd 8233 9abd 7b1c 57bd ea24 90bd
00000030: 69dc 613c 2525 c73d 0e93 dbbd b958 8abd
00000040: 37c1 883c fbd5 db3b a49d 12bc 62e0 2f3c
00000050: 88ed 8abd 782d 76bd 26bd db3d 8636 f73d
00000060: 9ee6 8bbd e9aa 353c 2fe8 7b3d a55f 443d
00000070: 014a 55bc 6bc2 67bd b03c eebb bdb2 ecbd
00000080: 4c6b 143c 5e94 7f3d d01f c5bd 1c54 c7bc
00000090: 38d9 9f3d 8486 86bc 4dfd 103d 0289 d6bc
000000a0: 76d9 923b 065b a83c 05f7 e33c 6012 febb
000000b0: 6bce 303d bad5 943d 74f2 633d f0a9 b63d
000000c0: 5346 4c3c 4580 e9bd 6031 063b df7b 663d
000000d0: ca1b bf3d ac87 8e3c a290 c1bd d866 45bd
000000e0: 82a2 323d 5773 c0bc 2d72 20bd 8eac 26bd
000000f0: 34da 2fbc a8b1 ab3c 4a0b e8bd dbfa c5bd

fc.weight f4 [1, 64]
-0.016416557 -0.09634816 -0.11335206 -0.038696986 0.16379437 -0.068294205 -0.072810404 0.05720177
-0.06737625 0.1282011 0.069434635 0.13813114 -0.102387115 0.099197015 0.08395187 -0.15107888
0.06960223 0.014936853 -0.021689657 0.015349622 -0.11082103 0.14541185 -0.036132462 0.03999639
0.13906415 -0.117322125 -0.023313746 0.06359546 -0.095637746 -0.078254014 0.16867907 0.007883829
0.0839858 0.12024914 0.090213925 -0.13600957 -0.1264261 -0.078643695 0.09243874 -0.043407623
-0.07150133 -0.14008299 0.06909342 0.11742099 -0.10159929 -0.027849447 0.040250815 0.084337175
-0.048530716 0.02974343 0.086004496 -0.036333717 -0.08998189 -0.10276569 0.096561216 0.000543137
-0.14065434 -0.10034745 0.07781362 -0.0028477025 0.094585896 0.044588238 -0.04807339 0.07238845
00000000: 047c 86bc 2f52 c5bd 2025 e8bd bb80 1ebd
00000010: b6b9 273e d5dd 8bbd 9f1d 95bd 674c 6a3d
00000020: 8ffc 89bd 2647 033e bf33 8e3d 4072 0d3e
00000030: 56b0 d1bd ce27 cb3d f5ee ab3d 6cb4 1abe
00000040: 9d8b 8e3d b4b9 743c 82ae b1bc fb7c 7b3c
00000050: 23f6 e2bd d8e6 143e a2ff 13bd 41d3 233d
00000060: d566 0e3e 9546 f0bd 78fc bebc 563e 823d
00000070: b9dd c3bd a443 a0bd 35ba 2c3e 2d2b 013c
00000080: bf00 ac3d 2e45 f63d 14c2 b83d 1846 0bbe
00000090: d875 01be f20f a1bd 8650 bd3d 31cc 31bd
000000a0: 4a6f 92bd ea71 0fbe da80 8d3d 6a7a f03d
000000b0: 4a13 d0bd 8624 e4bc 0ade 243d f8b8 ac3d
000000c0: 25c8 46bd 7ea8 f33c 2023 b03d aad2 14bd
000000d0: 6d48 b8bd d176 d2bd e3c1 c53d 4f61 0e3a
000000e0: b107 10be f782 cdbd bf5c 9f3d 85a0 3abb
000000f0: 40b6 c13d 28a2 363d 9ae8 44bd 6540 943d
