20251015/rnn_model.pth (torch, 19996 bytes, 5 tensors)

rnn.weight_ih_l0 f4 [64, 1]
00000000: c490 1a3e 2570 95bd 9c4b 8dbd 5c26 8d3d
00000010: 28f4 b9bd 0fb4 f43c b0ea 5dbd f0ba ccba
00000020: 93cd 59bd 053b 6e3d ff4f 8dbd acd1 1bbe
00000030: ab74 b6bc 5cd9 4b3d 17bd 09be 15bd 0cbe
00000040: 5372 2a3d d662 863d a33c cc3d e751 143e
00000050: 2ac2 a0bd ec82 183d f2c8 1b3d 7816 a8bc
00000060: a53c fc3d 0091 b3bd 8419 9ebd 88f5 1bbe
00000070: 3b3f 0cbe b404 903d e7e8 283e 37b2 aa3d
00000080: c29f 023e d442 72bd dc0b 0fbd c778 0bbe
00000090: 0b9f 693d c034 0cbe e215 8bbc 5a38 593c
000000a0: 6e75 6ebd 3171 4d3c 1d03 d33d ea41 9cbd
000000b0: b6db 0fbe 9ecc c73d 5886 ecbd 0c67 1b3e
000000c0: 8782 c13b e4bf 993d b457 053e a0c3 14be
000000d0: 0ebd 8d3b 5800 0b3c b188 45bd da6d dbbc
000000e0: 19ac 97bd ec3c febd 0bda ad3d c4fa 843d
000000f0: 2023 f3bd 6dc7 e5bd 8259 d0bd da70 ffbd
0.15094286 -0.072967805 -0.06899187 0.06892082 -0.09079772 0.029871015 -0.054178894 -0.0015619677
-0.053174566 0.058161754 -0.06900024 -0.15216702 -0.022272428 0.049767837 -0.13451038 -0.13744004
0.041612934 0.0656182 0.09972503 0.14484368 -0.07849534 0.03723423 0.038033433 -0.020518526
0.123162545 -0.08767891 -0.077197105 -0.15230381 -0.13695996 0.07032147 0.16495095 0.08334773
0.12756255 -0.059145764 -0.03492342 -0.13620292 0.05703644 -0.13691998 -0.016978208 0.013258064
-0.05821746 0.012539194 0.10303328 -0.076297596 -0.14048657 0.097558245 -0.115490615 0.15176028
0.0059054527 0.07507303 0.13021737 -0.1452775 0.0043255156 0.008483969 -0.048226062 -0.02678578
-0.07405872 -0.12413964 0.08488854 0.06493142 -0.11871934 -0.11219678 -0.10173322 -0.124726966

rnn.weight_hh_l0 f4 [64, 64]
00000000: 97bb dc3d 11e1 7bba 2ac0 dc3d 81a7 523d
00000010: 5894 12be b80b 90bc 5cc3 54bd 602a 073d
00000020: e306 86bd ef11 4b3d 35e9 7b3c 7b65 c8bd
00000030: f712 2cbd c3f2 d43d c8fd f2bd 6bbb d63b
00000040: 1224 adbb 0243 90bd 2c46 a63d 4c6e e3bd
00000050: 2614 89bd 0244 f2bb c578 9dbd 6848 19bd
00000060: 6f05 dfbd ec3f 303d 81b3 bebd 8ad8 1ebd
00000070: d438 d13d 2ab3 133d 2185 4e3d 3ffd 0a3d
00000080: d23e ddbc 0230 26bd 73ee 73bc 5c4c 07bd
00000090: 9d84 0d3d 7da9 b13d 2129 003d 430d 373b
000000a0: e30f 8dbd bd28 0abd e7fc b73c 9c99 bd3d
000000b0: f508 2cbd 3e3f b5bd 0a3b a33d 146b da3b
000000c0: d725 ccbd 971c 87bd 5946 13bd 8e2f 27bc
000000d0: e523 c8bd e93a 8bba d0fb e9bd 621c bcbd
000000e0: c859 743d 1b1f c83d 5887 9dbd 8cba 4a3d
000000f0: 987d d3bd c8f5 e73c 01c5 8dbd 22f2 2ebd
00000100: f655 753c deba e0bd 0eb2 e83d 7d9c bdbd
00000110: cd9a 5b3c 9397 0abe 3c98 873d b9a0 8e3d
00000120: 25c8 e23d 564b 9bbd d99a 3dbd 7e6a 6a3d
00000130: a059 86bd 0835 6bbd 5a60 883d c61b 2dbc
00000140: fc3a 89bd f1b9 533d 248a 1bbd c430 06be
00000150: 833a 233c 1ef8 bbbd ddbf c43d 9e65 a93d
00000160: da73 29bc 8585 9a3d 11b8 aebd a2ba 483d
00000170: 9f43 283d d7bb 173d ada7 e2bc 61eb 6c3d
00000180: 72a4 563d ea1a 013e e8d6 04bc eb17 943d
00000190: fdcc 2f3d fba1 a0bc 440e 16bd 58de 523d
000001a0: 71dc 5c3d 5915 913b 8e35 99bd 3523 f9bb
000001b0: 7bf0 fa3d c221 0dbd 809f f13d d60f 86bd
000001c0: 7448 9dbd 9e5f 1cbd a80d 80bd 0742 b33d
000001d0: afdc f73c f5d4 02be a1ad aa3d 6315 5bbd
000001e0: 62bb dd3d f070 133c b8ed 1f3d 8784 da3d
000001f0: 1650 a5bd d942 d23c e97b dd3d 4d4d f0bc
00000200: cd9b fbbd 000d c63d 03a7 17bd 2d76 c2bd
00000210: 8589 04be 60e0 d4bd 3ff1 953d c5c2 323c
00000220: 5fb0 cdbd 39e7 a93d d625 8d3c 4b90 7abd
00000230: ef5d 0f3d ccd4 57bd 426c e03d cccc 97bd
00000240: 53f9 803d 7dff 173d 79b7 c0bd 8c80 efbd
00000250: 834d eb3d 6a62 953d bde2 f7bd bb80 093c
00000260: cc4b 703b f50c 163e be84 81bd bc49 a3ba
00000270: 6ed6 0b3e 1d60 61bc 2d0e 8f3d 3731 06bc
00000280: d91d dcbd 3391 103e 279b 1a3b 82d9 063e
00000290: 56d5 d1bd fd86 963d f6ac 683c ad78 d8bd
000002a0: fac1 afbd 56e2 8d3b 4d03 1cbe f38f 57bc
000002b0: 5033 dcbd 6044 08be bad0 9cbd cc43 c53d
000002c0: a6ec c63d 4cbe cf3c 771d 7fbd 6b7d b0bd
000002d0: 7f4f 153e c092 a4bd 2a0f 8bbd 7815 83bd
000002e0: 4c11 cc3d 2a2e 063e 00f7 943d f381 57bd
000002f0: 4fc7 bcbd 055c 52bd 996e d23d 599c 4d3d
00000300: fe2a bb3d 7e28 023d 653a 09be 139f d33c
00000310: 60ed c8bd 560f 9c3b db89 7abb 8ee9 dbbc
00000320: a755 0dbd 7817 e73c 6904 b7bd 7795 243c
00000330: 81e2 3cbc 92bc e93d 581c 18be 9274 bebd
00000340: d2b8 3e3d 6730 083e 4c6e 8a3b 6649 0e3c
00000350: 06cd adbd 571c 05bd 12e3 1abc 2c7d febd
00000360: 5210 403d 2811 8e3d a537 81b7 f5a1 0fbe
00000370: 804d e03c 2aa2 93bb a9ad cd3a ebc2 95bd
00000380: d5b9 5c3d 12ef bcbd b3c8 893d 259b c4bd
00000390: 36d3 193c 97ed a2bd 0397 ae3d 5f57 c63c
000003a0: ac77 ba3c 63a6 d6bd 9d56 a13d 15bf bcbd
000003b0: 5985 c93d 73f9 3d3d e5e8 c83d c422 2b3d
000003c0: 5a03 82bd 5bc7 ab3d 6474 2c3d a5fc 09be
000003d0: 1cd9 82bd 142e d03d 8d8c 5e3d f78c a23d
000003e0: a2a1 71bd b7a3 6b3d a0dd e5bd 32b4 023d
000003f0: c934 c23d 9cd7 863d 8b4e 783d 3acf abbd
0.107779674 -0.00096084276 0.1077884 0.051429275 -0.14314401 -0.017583713 -0.05194412 0.032999396
-0.06544282 0.04957765 0.015375425 -0.09784981 -0.042010274 0.103978656 -0.11864811 0.0065531037
-0.005283841 -0.07044031 0.08118853 -0.11105022 -0.06693296 -0.007393361 -0.076890506 -0.037422568
-0.10889708 0.04302971 -0.093115814 -0.038780726 0.10215917 0.036059536 0.05041993 0.03393292
-0.027007494 -0.040573128 -0.014888394 -0.033031806 0.034550298 0.086749054 0.031289224 0.0027931489
-0.06887796 -0.033730257 0.02245946 0.09257814 -0.04200073 -0.08849953 0.07970245 0.0066655967
-0.09968155 -0.0659725 -0.03595576 -0.010204209 -0.09772471 -0.0010622415 -0.114249825 -0.09185101
0.059655935 0.09771558 -0.076918304 0.04949431 -0.103266895 0.02831544 -0.06922341 -0.042711385
0.014974108 -0.10973142 0.11362086 -0.092583634 0.013403607 -0.13534383 0.06620833 0.06964249
0.11073331 -0.075827286 -0.046290252 0.057230465 -0.06560063 -0.05742362 0.066590026 -0.010565704
-0.067007035 0.051691 -0.037973538 -0.1310454 0.009962681 -0.09178184 0.096069075 0.08271335
-0.010342563 0.07544998 -0.08531202 0.049006112 0.041080114 0.037044372 -0.027667845 0.057841662
0.05240292 0.12607923 -0.008107878 0.072311245 0.0429201 -0.019608488 -0.0366347 0.051481575
0.053921167 0.0044275937 -0.07480918 -0.007603074 0.12252899 -0.034456022 0.11798 -0.06545989
-0.07679835 -0.038177125 -0.06252605 0.08752828 0.030256597 -0.12776549 0.08333898 -0.053487193
0.10826756 0.008999094 0.039045066 0.10669809 -0.08071916 0.025666641 0.108146496 -0.029333735
-0.12285576 0.09670448 -0.03702451 -0.094951965 -0.12943085 -0.10394359 0.07321405 0.0109106945
-0.10043406 0.08296055 0.017229956 -0.061172765 0.03500169 -0.052693173 0.109581485 -0.07412109
0.06297555 0.037108887 -0.09409995 -0.1169444 0.114893936 0.072941616 -0.12103794 0.008392508
0.0036666272 0.1465338 -0.06324147 -0.0012457888 0.13656017 -0.013755825 0.06985126 -0.008190445
-0.107478805 0.14117889 0.0023591013 0.1316891 -0.10245769 0.07349966 0.014201393 -0.10569892
-0.0858192 0.00432996 -0.15235634 -0.013156879 -0.107519746 -0.13307333 -0.07656999 0.09632072
0.09713106 0.025359295 -0.06228396 -0.086176716 0.14581107 -0.08035803 -0.06790002 -0.06400579
0.099642366 0.13103548 0.07273674 -0.052614164 -0.092177026 -0.051357288 0.10275001 0.050197933
0.091390595 0.031776898 -0.13401182 0.025832688 -0.09810901 0.0047625704 -0.003822914 -0.026844766
-0.034505513 0.028209433 -0.08936388 0.010045401 -0.011528612 0.1141292 -0.14854562 -0.09299578
0.046562977 0.13299714 0.004224574 0.008684492 -0.08486371 -0.03249773 -0.009453552 -0.124262184
0.046890564 0.06936866 -1.540391e-05 -0.14026625 0.027380705 -0.0045054154 0.0015692014 -0.07312568
0.05388816 -0.092252865 0.067277335 -0.09599904 0.0093887355 -0.07955473 0.08524897 0.024211584
0.022762142 -0.104809545 0.07877848 -0.092161335 0.09839887 0.04638047 0.09810046 0.041781202
-0.063482955 0.083876334 0.042103186 -0.13475282 -0.063890666 0.10165039 0.05433326 0.07937043
-0.058992036 0.057529178 -0.11223912 0.03191013 0.09482724 0.06584093 0.06062178 -0.08389135

rnn.bias_ih_l0 f4 [64]
00000000: 7a7c f9bc 51ee ccbc 3169 0a3d f624 733d
00000010: 0a3a 5e3d b584 c43c 839c 72bd 3c4c dabd
00000020: 1ef2 b33d 4e57 12bd 7beb aa3c 3cd0 94bd
00000030: 752c 713d 4175 de3d bdbf a0bc 3aab d13b
00000040: 77fb 4c3c 39c7 95bd 832f 803d be1c d0bd
00000050: a1e7 00bd ba4b 51bd d773 4ebc a91c f03c
00000060: 8032 33bd 9553 cb3d 3aa5 74bd 1d1b 9fbd
00000070: 3fbc 07bd d964 863d 23b5 c3bd 9a45 77bd
00000080: e603 fa3d b705 a7bc bf15 a73d 54f9 f9bd
00000090: 5204 b53d 4809 ae3c 8aa1 e83c 61b1 983d
000000a0: 3cb1 adbd 009d 29bd a595 08bd 9960 3c3d
000000b0: 4e40 c5bd a757 f3bd fa4d 16bc 3696 0a3b
000000c0: 697d 843d 0bcd 66bd c3a4 1dbd 99b7 d23c
000000d0: 1236 60bd 89f1 c13d ec5b bc39 7200 7a3d
000000e0: f72f f33c e594 d73c c408 bdbd 1495 273d
000000f0: f5b5 663d 656f e23d a9b4 993d 578a e9bd
-0.030454863 -0.025015982 0.033791725 0.05936142 0.05425457 0.02398906 -0.059231292 -0.10659072
0.087864146 -0.03572779 0.020864239 -0.0726628 0.05888029 0.10862208 -0.019622678 0.0063985856
0.012511126 -0.07313389 0.06259062 -0.10161732 -0.0314709 -0.05109761 -0.012600861 0.029310541
-0.043749332 0.099280514 -0.059727885 -0.07768843 -0.03313851 0.06562204 -0.095560335 -0.06036911
0.12207775 -0.020388467 0.081584446 -0.12205759 0.08838715 0.02124466 0.02839734 0.07455707
-0.084810704 -0.041409492 -0.033345837 0.04599056 -0.09631406 -0.11881953 -0.0091738645 0.0021146662
0.064692326 -0.056347888 -0.038487207 0.025722312 -0.054739065 0.09469897 0.0003592664 0.06103558
0.029685957 0.026316116 -0.092301875 0.040913656 0.05632587 0.11056403 0.07505161 -0.11403339

rnn.bias_hh_l0 f4 [64]
00000000: b3a5 a8bd fe59 a0bd 1af3 c43d 5869 8a3c
00000010: 3f31 31bd b233 51bd a416 353d 219f 89bd
00000020: 0667 093b b9e8 e13d 123b 34bc 62c5 1abd
00000030: 0ac4 423d 9b24 21bd 6a12 b63c 0443 fc3a
00000040: 355c 34bd 73ee ac3d ab00 77bd 0949 1ebd
00000050: 25f9 6bbd ff93 b4bd cf2c 1f3d a2d2 793d
00000060: 6d38 6dbd de70 b0bd 386b cc3d ab1f 85bb
00000070: 53a3 3b3d f2ee 86bd 1e2b 67bd 9ea1 21bd
00000080: 6c98 373c ade8 a6bb 0ed9 eb3b 35f7 933d
00000090: b81c 84bd 587e c53d 3f93 8cbd e44c df3a
000000a0: 2ea1 983b fd63 ebba 7558 13bd 1131 023c
000000b0: 12ec b2bd 8424 563d 1744 9f3d 119c d3bc
000000c0: fa07 40bd f188 a53c 4d63 09bd 2bc2 833d
000000d0: 2e92 9d3c cda4 c13c 5a6b 8c3d 9e56 e63d
000000e0: 5779 c4bd 5729 61bd dc3d f73d 6f22 cabd
000000f0: 3310 533d 3f5c 0bbe 1029 02be a483 cfbd
-0.082347296 -0.07829665 0.096166804 0.016895935 -0.043259855 -0.05107469 0.044211045 -0.067198046
0.0020965948 0.110307164 -0.011000412 -0.037785895 0.04755024 -0.03934155 0.022225577 0.0019246046
-0.044033248 0.08443918 -0.06030337 -0.03864387 -0.05761065 -0.088172905 0.038861092 0.06099189
-0.05791514 -0.08615278 0.09981388 -0.004062613 0.045810055 -0.06588544 -0.056437604 -0.03946077
0.011205774 -0.005093655 0.007197506 0.072248854 -0.0645079 0.09643239 -0.068640225 0.0017036465
0.004657886 -0.0017958876 -0.03597303 0.007946269 -0.08736433 0.052280918 0.07776659 -0.025831254
-0.046882607 0.0202069 -0.033541966 0.06433519 0.019234743 0.023638153 0.06856413 0.1124699
-0.09593456 -0.054971065 0.120723456 -0.09869849 0.05152912 -0.13609408 -0.12710977 -0.1013253

fc.weight f4 [1, 64]
00000000: c412 be3d b1e9 c0bb d743 aebd 0d3e f33d
00000010: 4fb3 573d e9eb dabd 5e08 f9bc 37c0 91bc
00000020: d5c1 73bd 5c1b 0fba ddf6 b43c 8f5c 83bd
00000030: f6fe ad3d cf9a 05be 8b99 983d fef6 51bd
00000040: 9a41 0cbd 88ee eebd 98f9 10bd 9e60 60bc
00000050: 5463 82bd 4972 813d b6fc 6cbd d294 043e
00000060: 3982 1c3e 4cfe 89bd 2f04 5b3c 0ade b4bd
00000070: 157a 83bd a3f6 213e 2e8f 163e bd37 0d3e
00000080: 575a b83d a005 f2bd 5a9f 693d f9e9 57bd
00000090: 7a32 fbbd 28d1 c6bd 9689 643d cb25 2bbd
000000a0: fd8c 06be decd 403c bcc7 1f3d c0ee 373d
000000b0: 9df4 883c 6dd0 0c3e 3e36 14be 27e1 843d
000000c0: eade bfbd 12e1 02be 8092 a03d c5ce babd
000000d0: ce20 ba3b a1f5 be3d 3a49 0dbc c40d 693d
000000e0: bf18 e8bd 61ab 93bd 92ac 74bc 57b6 ec3d
000000f0: 2105 dcbd d5f3 24bc c2ad f83d 6a80 a0bc
0.09280923 -0.005887233 -0.08509033 0.118770696 0.052661236 -0.106895275 -0.030399498 -0.01779185
-0.059511025 -0.0005459094 0.02209037 -0.064141385 0.084958956 -0.13047336 0.07451161 -0.05126094
-0.03424225 -0.1166659 -0.03539428 -0.01369491 -0.063666016 0.06320626 -0.05785819 0.12947395
0.15284051 -0.067379564 0.013367697 -0.08831413 -0.0641977 0.1581674 0.14703056 0.13790794
0.09001606 -0.11817479 0.057036735 -0.052713368 -0.12265487 -0.09707862 0.055795275 -0.04178409
-0.1313972 0.011767833 0.03900884 0.044905424 0.016718203 0.13751383 -0.14473817 0.06488257
-0.09368689 -0.1278117 0.07840443 -0.091214694 0.00568018 0.09324194 -0.008623416 0.056897894
-0.11332845 -0.07210422 -0.014933722 0.11558216 -0.10743166 -0.0100679 0.12142517 -0.019592483
