cnn/pt/CCNN1.pt (torch, 265128 bytes, 8 tensors)

conv1.weight f4 [16, 1, 5, 5]
-0.09060678 -0.00600019 -0.072152376 -0.05377 -0.24965875 -0.08505487 -0.15579359 0.22527859
0.014430082 -0.18395889 0.2635943 0.1573154 -0.017228175 0.30058467 0.26253763 -0.061666217
0.01923984 -0.047822855 0.1657611 0.080240004 -0.2308751 -0.016282663 -0.3156862 -0.20066279
0.1736453 0.077680446 0.07536549 0.08522115 0.062281195 0.08515208 0.046589572 -0.014073405
-0.116162084 -0.055467878 0.05660649 -0.13417125 -0.040418208 -0.068940185 0.22548167 0.1976295
-0.117418975 0.2287458 0.14646032 -0.185755 0.17876877 0.13294892 -0.08910273 -0.024420809
-0.27518612 0.029672185 -0.06869052 -0.29300934 -0.07135367 -0.21402359 -0.07816128 -0.29662904
-0.06485885 -0.22369866 -0.13998234 -0.009787079 -0.109511845 -0.10162752 -0.19684234 -0.08218375
-0.05454412 0.24417046 0.040719863 0.19494838 0.121390596 -0.10677367 0.2580951 0.29775193
0.1409005 0.2641084 0.25286156 0.17749107 0.16925761 0.039510272 0.14450869 -0.3262784
-0.06565509 0.10061289 -0.09702657 0.078642234 -0.08961286 0.020568088 0.10304323 -0.15400927
-0.15706263 -0.2294007 0.20498818 0.09943615 0.053697195 0.21832208 0.0152025465 0.01132902
0.027164672 -0.025084106 0.2671898 0.15409277 -0.24595 -0.33967027 0.13648054 0.18922113
0.09495366 -0.11285734 -0.012847931 0.16043194 -0.022742555 -0.11720746 0.14128338 -0.015393976
0.052701253 0.094281845 -0.19957279 0.1381351 -0.00024306533 0.08961267 0.051074784 0.13174057
-0.076592 -0.12877774 -0.009866767 0.081754506 0.03995526 0.14937942 -0.1597384 -0.27103043
-0.037034977 -0.03329499 0.0050360505 0.21720333 -0.1404513 -0.3008708 -0.37590986 0.1220082
0.3636438 0.2411184 0.1239629 -0.118495815 -0.16008152 0.036989927 0.058022846 0.24738486
0.11227948 -0.10828908 0.09685893 0.039840914 0.087609254 -0.025280682 0.34676185 0.16509303
0.026967589 -0.044654325 -0.38614506 -0.14044958 -0.19327538 -0.110806994 -0.24427873 -0.16954273
-0.21758775 -0.20910238 -0.410793 -0.0872485 -0.046554044 -0.20473737 0.05117402 0.087997384
-0.21454677 -0.14789525 0.09124074 -0.067268565 0.23504545 -0.1867223 0.041713014 -0.08568687
-0.06880344 -0.040625114 -0.03470371 0.16523956 0.21956964 0.21696237 0.354266 0.26107886
0.16314803 0.10215609 0.12614855 0.09018988 0.013931902 0.12983254 -0.32722604 -0.2005389
-0.13422608 -0.06627246 -0.019479126 -0.39264894 -0.34941086 -0.25009108 0.117077336 -0.019539433
0.13869408 0.11855976 0.052622885 0.1604438 -0.122334115 0.079208374 -0.111319214 -0.09756481
-0.05365096 -0.32746568 0.009522901 -0.02855911 0.2313805 0.18716176 -0.32563776 -0.3389563
0.14048833 0.22278899 0.045184873 -0.21432146 -0.37995344 -0.16897942 0.12951635 0.22835526
-0.103619136 0.036989663 0.018911881 0.28545308 0.3289437 0.09941835 0.24302165 0.23724964
0.2940865 0.043986842 -0.032990366 0.2625427 0.030544113 -0.057206627 -0.16923699 0.013745495
0.11771593 -0.022744695 -0.3065218 -0.36902323 -0.30598032 -0.21984424 -0.27351382 -0.31024987
0.01439334 0.053826705 0.08383042 0.031056423 0.0030781615 -0.14618197 0.16635004 0.3084211
00000000: 0c90 b9bd 3e9d c4bb a0c4 93bd ee3d 5cbd
00000010: 8ba6 7fbe 3f31 aebd 5b88 1fbe 6eaf 663e
00000020: 276c 6c3c b85f 3cbe d5f5 863e 4a17 213e
00000030: 1a22 8dbc 3ce6 993e 556b 863e b795 7cbd
00000040: de9c 9d3c e6e1 43bd 47bd 293e df54 a43d
00000050: 866a 6cbe 3863 85bc 9fa1 a1be 8c7a 4dbe
00000060: 13d0 313e ed16 9f3d 3959 9a3d 6d88 ae3d
00000070: 911a 7f3d 3764 ae3d b5d4 3e3d 2494 66bc
00000080: 63e6 edbd 4932 63bd 35dc 673d 3064 09be
00000090: 908d 25bd 8330 8dbd abe4 663e 635f 4a3e
000000a0: 5c79 f0bd 573c 6a3e b2f9 153e 8f36 3ebe
000000b0: 290f 373e c323 083e 7e7b b6bd 260e c8bc
000000c0: 32e5 8cbe 1513 f33c 9ead 8cbd 5205 96be
000000d0: df21 92bd 0029 5bbe 0513 a0bd c3df 97be
000000e0: b7d4 84bd 4311 65be 8857 0fbe fc59 20bc
000000f0: bf47 e0bd 1722 d0bd 0a91 49be f44f a8bd
00000100: a869 5fbd d207 7a3e dfc9 263d 8ca0 473e
00000110: a29b f83d 27ac dabd 0a25 843e f172 983e
00000120: 3848 103e 3739 873e 1277 813e 38c0 353e
00000130: de51 2d3e 86d5 213d 16fa 133e f60d a7be
00000140: 2d76 86bd 220e ce3d deb5 c6bd 2e0f a13d
00000150: f286 b7bd 687e a83c 5408 d33d 9bb4 1dbe
00000160: 07d5 20be 04e8 6abe 6ce8 513e 2ea5 cb3d
00000170: 97f1 5b3d d38f 5f3e 1a14 793c 5b9d 393c
00000180: 7288 de3c 2f7d cdbc 1acd 883e 7fca 1d3e
00000190: 51da 7bbe 43e9 adbe 8ec1 0b3e 2fc3 413e
000001a0: 1177 c23d c021 e7bd 2180 52bc 4548 243e
000001b0: 984e babc 770a f0bd 97ac 103e 0437 7cbc
000001c0: 45dd 573d d716 c13d cf5c 4cbe 4a73 0d3e
000001d0: 5adf 7eb9 d986 b73d cb33 513d 00e7 063e
000001e0: 44dc 9cbd 50de 03be 38a8 21bc e86e a73d
000001f0: 20a8 233d ebf6 183e 7792 23be 80c4 8abe
00000200: fdb1 17bd 5460 08bd 7405 a53b 8d6a 5e3e
00000210: 77d2 0fbe bd0b 9abe 4277 c0be 6fdf f93d
00000220: 852f ba3e bee7 763e 43e0 fd3d efad f2bd
00000230: 69ec 23be c082 173d 5da9 6d3d 7552 7d3e
00000240: c9f2 e53d aac6 ddbd fa5d c63d 3a30 233d
00000250: 7b6c b33d 6f19 cfbc c58a b13e 260e 293e
00000260: 22eb dc3c 74e7 36bd ceb4 c5be 04d2 0fbe
00000270: fbe9 45be c7ee e2bd 3424 7abe 9c9c 2dbe
00000280: 53cf 5ebe ef1e 56be 7653 d2be 57af b2bd
00000290: 74af 3ebd aca6 51be d99b 513d f937 b43d
000002a0: 26b2 5bbe da71 17be 6ddc ba3d 1ac4 89bd
000002b0: c1af 703e 2134 3fbe 44db 2a3d 997c afbd
000002c0: d1e8 8cbd 8566 26bd 7a25 0ebd 8f34 293e
000002d0: ddd6 603e 622b 5e3e 5a62 b53e 21ac 853e
000002e0: 4710 273e 3637 d13d 162d 013e 79b5 b83d
000002f0: a242 643c d2f2 043e 2c8a a7be 125a 4dbe
00000300: 9072 09be dbb9 87bd b092 9fbc 4809 c9be
00000310: fbe5 b2be f00b 80be 3ec6 ef3d 2911 a0bc
00000320: d205 0e3e 76cf f23d 188b 573d 614b 243e
00000330: 4f8a fabd 0038 a23d 54fb e3bd 0fd0 c7bd
00000340: 1cc1 5bbd 95a9 a7be f105 1c3c cbf4 e9bc
00000350: 03ef 6c3e 55a7 3f3e feb9 a6be ae8b adbe
00000360: 2cdc 0f3e cc22 643e c613 393d 1677 5bbe
00000370: 4289 c2be f108 2dbe ef9f 043e f6d5 693e
00000380: 4536 d4bd 7982 173d 17ed 9a3c e826 923e
00000390: 4f6b a83e d99b cb3d abda 783e 92f1 723e
000003a0: 8192 963e 8c2b 343d e820 07bd ff6b 863e
000003b0: a637 fa3c 7f51 6abd 764c 2dbe c934 613c
000003c0: 0d15 f13d 1553 babc 6df0 9cbe 9df0 bcbe
000003d0: 74a9 9cbe d91e 61be 010a 8cbe 12d9 9ebe
000003e0: 0bd2 6b3c 6479 5c3d 49af ab3d 0a6a fe3c
000003f0: fbba 493b bab0 15be aa57 2a3e 5fe9 9d3e

conv1.bias f4 [16]
0.004657052 -0.059548944 0.071021125 -0.16111098 -0.034716316 -0.114857905 0.1710749 0.06357515
-0.0051989667 0.00088023086 -0.04136903 -0.019013375 0.09988552 -0.011804765 -0.0837841 -0.052869007
00000000: 2f9a 983b 98e9 73bd 8673 913d 47fa 24be
00000010: b232 0ebd 9f3a ebbd 422e 2f3e b033 823d
00000020: 185c aabb 4bbf 663a 9272 29bd f0c1 9bbc
00000030: c890 cc3d c668 41bc 0097 abbd 2c8d 58bd

conv2.weight f4 [32, 16, 5, 5]
-0.011113476 -0.10452257 -0.13321911 -0.0023313935 -0.11763579 0.025825627 -0.074199796 -0.072370544
-0.044012737 -0.09026579 0.055064406 0.064247504 -0.0039695497 -0.1069736 -0.05933479 -0.045911912
0.077239186 0.04658564 -0.18277384 -0.19458666 -0.021588327 0.01910751 0.017008854 0.005629453
-0.1045416 -0.112880535 -0.0267071 0.016288975 -0.04009484 -0.08015767 -0.0065034474 0.006865821
-0.07473274 -0.08321656 -0.094735585 0.0700313 0.04082281 -0.01613581 -0.07284398 -0.094127424
0.035871416 0.018848883 0.0206004 -0.046929322 -0.06764964 -0.008637687 0.081325665 0.042818442
0.012972076 0.0035667398 0.075242 0.08524361 -0.04697459 -0.20999984 -0.13603556 -0.0005225001
-0.006238089 -0.110443495 -0.0314595 -0.027599486 -0.10177227 -0.115788504 0.054390755 0.080997005
-0.07952811 -0.03603361 -0.1503621 0.0102525195 -0.020876184 0.043713566 0.12557635 -0.04114504
-0.09315623 -0.037446775 -0.054701056 0.04412439 -0.076017104 -0.08428524 -0.052769106 0.01817628
0.054230206 0.021768834 0.00018488191 -0.1076383 -0.088300794 0.04217265 0.12095848 0.042712368
-0.1295092 -0.085637726 0.052639525 0.026610613 0.0738605 0.05962545 -0.005248979 0.014293453
0.05314638 0.018238958 0.02441753 -0.022930484 -0.039896622 -0.10150316 -0.0015186672 0.0026978303
-0.05494058 0.0025658396 0.051084336 -0.011592524 -0.17393722 -0.060114216 0.06214731 0.023214463
-0.04565061 -0.05964327 -0.042387675 -0.009114552 -0.025005665 -0.0071267383 -0.015690431 -0.0689595
0.021079136 0.053975277 -0.00422915 -0.02537481 -0.0041516554 0.13581318 -0.0077803126 -0.1258294
-0.21074644 -0.047273267 0.08574904 0.024992933 -0.14854017 -0.1413724 -0.10919033 0.012315974
0.13997477 0.12535788 -0.034320377 -0.06288682 -0.04132348 0.06669303 0.10828235 0.10477115
-0.02305352 -0.015364647 -0.044357456 0.09745248 0.06875633 0.05858401 -0.03586597 -0.07543218
-0.06956814 -1.8402638e-05 0.085714586 -0.06694522 0.037740227 0.20928706 0.1382806 0.047270756
-0.17322429 -0.1982793 -0.020434363 -0.03274648 -0.067321815 -0.25569645 -0.34072125 -0.24881347
-0.11839233 -0.008842501 -0.13953483 -0.12745425 -0.044642285 -0.039916594 -0.08449409 -0.073256336
-0.12456662 -0.079824366 0.038794015 0.00087228476 0.06298945 -0.0224017 -0.057432193 -0.03046924
-0.11935743 0.089984566 -0.031211844 -0.13003 -0.08563537 -0.092158064 0.0009968714 0.036262486
0.02519036 -0.12145924 -0.17766441 0.014871369 0.03032361 0.029625118 -0.0006517545 -0.091678396
0.031090805 -0.07692716 -0.10134534 0.04687836 0.09739474 0.041108467 0.070681944 0.009315301
-0.00061840704 0.014481123 0.06194149 0.11776459 0.04822945 -0.08344329 -0.050867166 0.008431066
0.04440191 0.062124968 0.06497335 -0.029942883 -0.120569035 -0.03053162 0.06366603 0.096824154
-0.044343133 -0.05591434 -0.08863309 0.06742278 0.11668924 0.08967813 -0.105621934 -0.047123645
0.09554455 -0.0010498355 -0.13496162 -0.04701917 -0.047452554 -0.13092034 -0.10284089 -0.021336291
-0.053076573 -0.062969774 -0.06121965 -0.09647373 -0.053853523 -0.06440563 0.03368941 0.009441141
-0.082686074 -0.031904325 0.13491361 0.052651405 -0.101325 -0.053101733 0.060969085 -0.007487061
00000000: 4c15 36bc ee0f d6bd 976a 08be 4bca 18bb
00000010: 08eb f0bd 4490 d33c 10f6 97bd 0237 94bd
00000020: b346 34bd 45dd b8bd 378b 613d 3294 833d
00000030: ff12 82bb fa14 dbbd 0909 73bd 210e 3cbd
00000040: 942f 9e3d 96d0 3e3d 1129 3bbe ba41 47be
00000050: 01da b0bc 5a87 9c3c 2756 8b3c 4677 b83b
00000060: e819 d6bd e92d e7bd d9c8 dabc 7570 853c
00000070: 7d3a 24bd b429 a4bd df1a d5bb aefa e03b
00000080: 7b0d 99bd 726d aabd bb04 c2bd 926c 8f3d
00000090: d235 273d 3f2f 84bc 392f 95bd e1c5 c0bd
000000a0: e8ed 123d f968 9a3c 2cc2 a83c f638 40bd
000000b0: e58b 8abd 1685 0dbc 128e a63d 6462 2f3d
000000c0: d588 543c f7bf 693b 7a18 9a3d 3494 ae3d
000000d0: 6d68 40bd 330a 57be e84c 0bbe 63f8 08ba
000000e0: e268 ccbb 3330 e2bd addb 00bd 5118 e2bc
000000f0: fb6d d0bd 8622 edbd d7c8 5e3d c2e1 a53d
00000100: a2df a2bd fb97 13bd 86f8 19be 2ffa 273c
00000110: 8804 abbc ff0c 333d 1697 003e b487 28bd
00000120: b2c8 bebd ca61 19bd 370e 60bd c7bb 343d
00000130: dbae 9bbd bd9d acbd 6b24 58bd 6ce6 943c
00000140: 7e20 5e3d 8e54 b23c dcdc 4139 7871 dcbd
00000150: 0cd7 b4bd 3bbd 2c3d 14b9 f73d 2af3 2e3d
00000160: 0f9e 04be d562 afbd 8b9c 573d 80fe d93c
00000170: 2c44 973d d139 743d a1ff abbb 162f 6a3c
00000180: 05b0 593d de69 953c 4607 c83c b6d8 bbbc
00000190: a46a 23bd e4e0 cfbd 040e c7ba 15ce 303b
000001a0: 6009 61bd a527 283b cf3d 513d 92ee 3dbc
000001b0: 991c 32be 533a 76bd 2d8e 7e3d 422c be3c
000001c0: 22fc 3abd 804c 74bd b39e 2dbd 3455 15bc
000001d0: aed8 ccbc 6a87 e9bb 3889 80bc a33a 8dbd
000001e0: 27ae ac3c 2e15 5d3d ae94 8abb d5de cfbc
000001f0: 9c0a 88bb 9c12 0b3e fef1 febb 6cd9 00be
00000200: eacd 57be 9da1 41bd 319d af3d fbbd cc3c
00000210: ea1a 18be edc3 10be 2e9f dfbd f0c8 493c
00000220: 8c55 0f3e d15d 003e 8693 0cbd ceca 80bd
00000230: cf42 29bd 5b96 883d 23c3 dd3d 4292 d63d
00000240: bcda bcbc 00bc 7bbc 2ab0 35bd 2a95 c73d
00000250: 1ed0 8c3d c9f5 6f3d 32e8 12bd 307c 9abd
00000260: be79 8ebd 5d5f 9ab7 218b af3d 931a 89bd
00000270: 7f95 1a3d 594f 563e 6e99 0d3e fb9e 413d
00000280: b561 31be bb09 4bbe f765 a7bc 2c21 06bd
00000290: 05e0 89bd a5ea 82be 0473 aebe f5c8 7ebe
000002a0: ae77 f2bd 23e0 10bc 38e2 0ebe 5e83 02be
000002b0: d4da 36bd 957f 23bd 3d0b adbd 6b07 96bd
000002c0: c91c ffbd f57a a3bd 79e6 1e3d 0aaa 643a
000002d0: 9d00 813d c583 b7bc 053e 6bbd a19a f9bc
000002e0: ab71 f4bd d449 b83d fbaf ffbc 9626 05be
000002f0: 9961 afbd 5ebd bcbd 74a9 823a f987 143d
00000300: 045c ce3c 9fbf f8bd a9ed 35be 0ba7 733c
00000310: 3869 f83c 60b0 f23c 81da 2aba e2c1 bbbd
00000320: 25b2 fe3c fd8b 9dbd 258e cfbd 8603 403d
00000330: e576 c73d 5a61 283d b2c1 903d 349f 183c
00000340: 981c 22ba 3b42 6d3c 5cb6 7d3d 902e f13d
00000350: 3e8c 453d 51e4 aabd 175a 50bd 7422 0a3c
00000360: c7de 353d c076 7e3d bf10 853d c74a f5bc
00000370: e6ec f6bd 731d fabc 5663 823d be4b c63d
00000380: 25a1 35bd 6f06 65bd 4485 b5bd f414 8a3d
00000390: c5fa ee3d 2ba9 b73d 5050 d8bd b904 41bd
000003a0: dcac c33d a29a 89ba 6133 0abe 2c97 40bd
000003b0: 9c5d 42bd fb0f 06be 3f9e d2bd 72c9 aebc
000003c0: d266 59bd 4cf6 80bd 75c1 7abd 0594 c5bd
000003d0: 8395 5cbd 19e7 83bd e8fd 093d 04af 1a3c
000003e0: 5157 a9bd 1cae 02bd cb26 0a3e 00a9 573d
000003f0: 7b83 cfbd 3481 59bd b8ba 793d 0556 f5bb

conv2.bias f4 [32]
-0.032538753 -0.013468615 -0.028834445 -0.019800615 -0.025124237 0.015317046 -0.005711554 -0.037326347
0.08085594 0.046767723 0.006623215 -0.03666308 -0.06786952 0.024649102 -0.044447154 -0.044054408
-0.010313963 0.02657807 0.029160269 -0.017040357 -0.0702878 0.011352592 0.0246515 0.01347574
-0.053613346 -0.0477864 -0.073453106 0.028666066 -0.03526537 -0.032993216 0.023306431 0.05440772
00000000: 5b47 05bd 77ab 5cbc 3736 ecbc e634 a2bc
00000010: 58d1 cdbc 59f4 7a3c fd27 bbbb 83e3 18bd
00000020: cd97 a53d 838f 3f3d 8e07 d93b 072c 16bd
00000030: 2dff 8abd eaec c93c 380e 36bd 6572 34bd
00000040: e5fb 28bc 41ba d93c 84e1 ee3c 3898 8bbc
00000050: 0df3 8fbd 3900 3a3c f1f1 c93c 5ac9 5c3c
00000060: ab99 5bbd acbb 43bd 956e 96bd 19d5 ea3c
00000070: 6c72 10bd e523 07bd 21ed be3c a1da 5e3d

fc1.weight f4 [100, 512]
0.08598357 -0.059195183 -0.035590217 0.015560348 -0.023543945 -0.073938616 -0.07773251 0.072378404
0.017712986 0.01772852 -0.0422185 -0.019440655 -0.04437122 -0.017791796 -0.05778909 -0.08540271
0.106541835 -0.038878538 -0.021267053 -0.042208724 0.12055322 -0.008783454 -0.015258601 -0.03310644
0.06176063 0.048196297 -0.005294753 0.028977832 0.008063319 0.09044241 0.00044773147 -0.04963757
0.010651012 -0.00040674227 -0.03524462 0.086659685 -0.006591351 -0.008889087 0.061183404 0.057829484
0.02903112 0.0016257167 -0.015808443 0.08090358 -0.03233683 -0.047494754 0.03206419 0.008232674
0.062056452 -0.022090865 -0.024659164 -0.098466255 0.13738959 0.0029228083 0.0019551509 -0.0053033126
0.02102131 0.024584895 0.0152632175 -0.005717137 -0.0026574528 0.04689559 -0.008703366 -0.0762177
-0.020819118 -0.06622043 -0.02629217 0.01698749 0.057713717 0.0018032859 -0.005779361 -0.047465693
0.07789223 -0.12087777 -0.08155406 0.036724374 0.031143378 -0.022011098 0.046118222 0.016065698
-0.011070941 0.124539584 0.05352334 -0.01638674 -0.01953452 -0.0222379 0.04588974 0.08037087
0.011952133 -0.029384406 0.03076894 -0.0152267665 -0.03935077 0.036637355 0.10786238 -0.08762425
-0.038743995 -0.00837193 0.05105844 -0.043302182 -0.004078136 0.013265013 0.018792909 0.07621774
0.025297098 -0.043070573 0.054076012 0.029961674 -0.03166511 0.020840233 0.11367049 0.0048571136
0.0008705506 -0.06791986 -0.048490487 0.060322437 0.08272298 0.03390135 0.03221558 0.088430576
-0.0276713 0.026132355 -0.0045972634 0.021836309 0.0278128 -0.039041612 -0.07435294 -0.05620488
-0.0814872 -0.02938094 -0.13077228 -0.0071192076 -0.011885263 0.018924596 -0.09672789 0.024680765
-0.12758286 0.11893532 -0.07741899 -0.0010956838 0.008632722 0.09016277 0.023369256 0.055538464
-0.017569562 0.098026 0.13089307 0.065935224 0.0092835985 0.062104218 0.0012541186 0.0942167
0.018545482 0.033913787 0.044078227 0.07664133 -0.053543527 0.04677383 0.056328837 0.15600622
-0.0034915502 -0.047716517 0.023744943 -0.00022857766 0.050878596 0.04500247 0.024697965 -0.02409169
-0.0021568632 -0.04869739 -0.002545631 -0.0070526176 -0.039645012 -0.05494797 -0.030101886 -0.10540647
0.076825134 -0.033347394 0.023682682 0.09369874 0.014887248 0.020367883 -0.048525643 0.008581157
0.08451379 -0.004004288 -0.023883952 0.0005938867 -0.062057044 0.014971153 0.0381592 -0.00890042
0.032445572 -0.03045706 -0.011712111 0.025541518 0.13232091 -0.014690131 -0.023026306 -0.0063230367
0.11397044 -0.0016799885 0.0313964 0.051978245 0.04764019 0.037552986 0.029237265 -0.0042420626
0.09359888 0.030774495 -0.03339512 -0.016718214 0.0064699017 0.06904453 -0.032849662 -0.001577935
0.06318421 0.0546386 -0.051727496 0.09191739 -0.06778594 -0.0726531 -0.12870817 -0.15355799
0.012500643 -0.037890483 -0.019436378 0.02513903 -0.0047832085 -0.005753245 0.0014047507 -0.0026764232
-0.011431957 -0.025488036 0.003632329 0.042806968 -0.018380526 0.015595647 0.0058505773 0.0149489315
-0.031084383 -0.03509314 -0.025257722 0.04124191 -0.018440701 0.030641885 -0.027132688 0.008671354
-0.01158342 -0.049851954 0.021586228 0.010029987 -0.07567786 -0.072613135 0.014425465 0.03921629
00000000: 2718 b03d a676 72bd 0cc7 11bd d4f0 7e3c
00000010: 3bdf c0bc 216d 97bd 3932 9fbd 213b 943d
00000020: d31a 913c 673b 913c 4eed 2cbd 0242 9fbc
00000030: 99be 35bd 1ac0 91bc 41b4 6cbd 9ee7 aebd
00000040: 9b32 da3d 1a3f 1fbd 3e38 aebc 0ee3 2cbd
00000050: 9be4 f63d 7ae8 0fbc 36ff 79bc 9e9a 07bd
00000060: b7f8 7c3d 7b69 453d 9b7f adbb eb62 ed3c
00000070: 031c 043c df39 b93d 80bd ea39 c450 4bbd
00000080: 9581 2e3c 0640 d5b9 aa5c 10bd a27a b13d
00000090: 42fc d7bb 88a3 11bc 739b 7a3d 9cde 6c3d
000000a0: acd2 ed3c 0016 d53a b580 81bc c7b0 a53d
000000b0: a073 04bd dc89 42bd bd55 033d 56e2 063c
000000c0: e82e 7e3d e7f7 b4bc 0402 cabc ada8 c9bd
000000d0: dbaf 0c3e 968c 3f3b fd21 003b 69c7 adbb
000000e0: e234 ac3c 4366 c93c 9312 7a3c d256 bbbb
000000f0: a928 2ebb 9715 403d 9098 0ebc 0718 9cbd
00000100: db8c aabc 949e 87bd ad62 d7bc 5929 8b3c
00000110: 3865 6c3d 3c5c ec3a cb60 bdbb 636b 42bd
00000120: f685 9f3d c48e f7bd d105 a7bd 4c6c 163d
00000130: 6620 ff3c 9e50 b4bc 76e6 3c3d 369c 833c
00000140: e462 35bc 9c0e ff3d 4a3b 5b3d 7c3d 86bc
00000150: dc06 a0bc 422c b6bc e1f6 3b3d 7c99 a43d
00000160: e1d2 433c 91b7 f0bc 250f fc3c b079 79bc
00000170: 462e 21bd 0d11 163d f4e6 dc3d 5874 b3bd
00000180: 06b2 1ebd 6b2a 09bc a822 513d a15d 31bd
00000190: e2a1 85bb 7f55 593c 96f3 993c 0c18 9c3d
000001a0: dc3b cf3c c56a 30bd cf7e 5d3d 2f72 f53c
000001b0: 46b3 01bd 23b9 aa3c 13cc e83d 6c28 9f3b
000001c0: a935 643a 9119 8bbd f69d 46bd a914 773d
000001d0: aa6a a93d 24dc 0a3d 7cf4 033d 171b b53d
000001e0: ecae e2bc 8513 d63c a4a4 96bb 0fe2 b23c
000001f0: abd7 e33c 19ea 1fbd 5b46 98bd 1737 66bd
00000200: c3e2 a6bd 4cb0 f0bc 2be9 05be 3e48 e9bb
00000210: 68ba 42bc c107 9b3c 4619 c6bd 512f ca3c
00000220: 15a5 02be 5c94 f33d d98d 9ebd 0c9d 8fba
00000230: 4370 0d3c 42a7 b83d e270 bf3c 4d7c 633d
00000240: 0bee 8fbc dbc1 c83d d508 063e 0c09 873d
00000250: 3c1a 183c fe60 7e3d 3d61 a43a aff4 c03d
00000260: b2ec 973c 2fe9 0a3d 5f8b 343d 21f6 9c3d
00000270: 7550 5bbd ea95 3f3d 11b9 663d 18c0 1f3e
00000280: 7ed2 64bb 6572 43bd c184 c23c 59ae 6fb9
00000290: 1366 503d 8354 383d 6353 ca3c f05b c5bc
000002a0: 295a 0dbb ea76 47bd 9ad4 26bb a519 e7bb
000002b0: cf62 22bd 1f11 61bd 3b98 f6bc 59df d7bd
000002c0: 7f56 9d3d 4797 08bd 2f02 c23c 20e5 bf3d
000002d0: a5e9 733c 8cda a63c d3c2 46bd fb97 0c3c
000002e0: 9115 ad3d 6736 83bb 47a8 c3bc 10af 1b3a
000002f0: 872f 7ebd 9149 753c d24c 1c3d 11d3 11bc
00000300: a6e5 043d 1681 f9bc 27e4 3fbc 723c d13c
00000310: 227f 073e e0ae 70bc aaa1 bcbc 7a31 cfbb
00000320: 5669 e93d 0f33 dcba 8399 003d 24e7 543d
00000330: 5c22 433d 29d1 193d fd82 ef3c 0001 8bbb
00000340: c5b0 bf3d cb1a fc3c 52c9 08bd a3f4 88bc
00000350: 7801 d43b 3867 8d3d 5e8d 06bd b6d2 ceba
00000360: b966 813d bacc 5f3d 36e0 53bd 2f3f bc3d
00000370: 5bd3 8abd 26cb 94bd 13cc 03be 4e3e 1dbe
00000380: 7fcf 4c3c 0d33 1bbd 0a39 9fbc 5ef0 cd3c
00000390: 76bc 9cbb b885 bcbb 9d1f b83a ee66 2fbb
000003a0: 1a4d 3bbc 49cc d0bc 5e0c 6e3b 5c56 2f3d
000003b0: c292 96bc e284 7f3c 33b6 bf3b 5dec 743c
000003c0: ada4 febc d3bd 0fbd 48e9 cebc 47ed 283d
000003d0: f410 97bc b104 fb3c 5f45 debc 4b12 0e3c
000003e0: 63c8 3dbc 9031 4cbd 9ad5 b03c d154 243c
000003f0: fefc 9abd 32b6 94bd c958 6c3c 43a1 203d

fc1.bias f4 [100]
-0.022746347 0.025027895 0.012544451 -0.051341873 0.033530675 -0.010550152 -0.036121078 -0.07182007
0.02737818 -0.022768281 0.026591714 -0.040656317 -0.064436235 0.0035759145 -0.008105824 -0.04200463
0.054321647 -0.00039366802 -0.05652466 0.034444634 -0.046968278 -0.031710066 0.041001447 0.030213553
-0.018342415 0.020722331 0.033589825 0.01594064 0.0025495533 -0.0123503925 -0.020864913 0.007016459
0.01676656 -0.061376803 -0.03160864 0.008553903 -0.026335934 0.021982558 0.06485143 0.04740477
0.025419742 0.0030329798 -0.009863648 0.007039167 0.050291747 -0.020526685 -0.028635101 -0.04217515
-0.00285774 -0.029282903 0.023324141 -0.00093092065 -0.07136087 0.048777644 0.0125451265 0.0037873168
0.026626313 -0.0483701 -0.006523808 0.026395353 -0.011536929 -0.0082279015 -0.011785479 0.038932752
-0.010272609 0.040370602 -0.027381865 0.009097528 -0.0053583593 0.048823774 -0.027143665 0.04034622
-0.026289087 -0.008453446 -0.060454775 0.006233175 0.03454245 -0.0002809481 -0.006018316 -0.030089559
0.04741466 -0.008751553 -0.039111882 -0.016966157 -0.04357532 -0.010236756 0.0004453199 0.032370593
-0.006371982 0.028493429 0.026412752 -0.04054047 -5.6621448e-05 0.011613142 0.028989898 0.033224184
0.0032606053 -0.003540356 0.005118027 0.0050193216
00000000: 8c56 babc 4d07 cd3c 3e87 4d3c db4b 52bd
00000010: 7657 093d 8bda 2cbc b2f3 13bd 6716 93bd
00000020: 3448 e03c 8c84 babc ded6 d93c 3d87 26bd
00000030: 25f7 83bd e459 6a3b 4ace 04bc 0c0d 2cbd
00000040: 6080 5e3d 3a65 ceb9 6786 67bd d115 0d3d
00000050: cf61 40bd 6ae2 01bd 22f1 273d 6a82 f73c
00000060: d542 96bc e1c1 a93c 7c95 093d f295 823c
00000070: 6816 273b 4d59 4abc e5ec aabc 53ea e53b
00000080: 065a 893c 3e66 7bbd 1078 01bd ab25 0c3c
00000090: 75be d7bc c414 b43c d4d0 843d 812b 423d
000000a0: 103d d03c f5c4 463b 239b 21bc d0a8 e63b
000000b0: b8fe 4d3d 9427 a8bc 2994 eabc dabf 2cbd
000000c0: ec48 3bbb b3e2 efbc 4512 bf3c 0709 74ba
000000d0: a625 92bd 11cb 473d 138a 4d3c a234 783b
000000e0: 6d1f da3c ba1f 46bd abc5 d5bb 113b d83c
000000f0: 6305 3dbc 52ce 06bc e217 41bc f377 1f3d
00000100: 724e 28bc a55b 253d ef4f e0bc cc0d 153c
00000110: 2d95 afbb 70fb 473d 645c debc 1442 253d
00000120: 365c d7bc 5380 0abc 6d9f 77bd a93f cc3b
00000130: 627c 0d3d 374c 93b9 4b35 c5bb 617e f6bc
00000140: e035 423d ac62 0fbc c833 20bd 9cfc 8abc
00000150: 097c 32bd 11b8 27bc d379 e939 0797 043d
00000160: 0fcc d0bb 0d6b e93c 8e5f d83c c40d 26bd
00000170: d17c 6db8 0c45 3e3c 397c ed3c 1516 083d
00000180: e1af 553b 5105 68bb 1fb5 a73b 1f79 a43b

fc2.weight f4 [10, 100]
-0.027637068 -0.13760425 -0.022375308 -0.051657237 0.17121117 -0.10763322 0.11803376 -0.107586086
-0.08617027 -0.023224467 0.13412778 -0.16760108 0.11454418 0.16116339 -0.08855903 -0.17419986
-0.08623369 0.112115234 0.054936454 0.19992349 -0.060545426 -0.10162529 0.090280265 0.12913002
0.010150345 -0.123428605 -0.04712576 -0.037542805 0.05011393 -0.13029927 -0.058216892 -0.00910954
-0.17309155 -0.23050405 0.1473961 0.09889359 -0.034235965 0.2198781 -0.07409335 0.04376784
0.05125557 0.021099368 -0.0636641 0.119625784 -0.14509064 -0.06270058 0.047790673 0.1635307
-0.06394255 -0.04956303 0.051517796 -0.04169168 0.10142479 -0.016844427 -0.16713053 0.09129655
-0.11483964 -0.17147793 -0.02637435 -0.07592127 0.07332468 -0.019931234 0.059072096 0.06329967
0.1688116 -0.008738426 0.081322655 -0.18204062 -0.16523656 -0.066509865 -0.03750892 0.087646246
0.020124432 0.041321483 0.12775864 0.05366101 0.023924047 0.13813105 0.11012262 0.10515633
-0.15503144 -0.12682374 0.060281146 -0.056307744 -0.14731167 0.05111817 0.17913435 -0.13517098
-0.007068569 -0.025650376 0.12226001 -0.03930495 0.031277347 -0.12459246 0.14384852 -0.15974084
-0.054671295 0.06885829 0.122932 -0.06009512 -0.03824853 0.045368694 -0.086934395 0.20452666
-0.17919496 -0.21251236 -0.0034892391 0.22110738 0.06585481 0.12139355 -0.028104125 4.8437625e-05
-0.045587562 0.037460364 -0.10037648 -0.052185718 -0.07931208 0.00032013538 -0.070707 0.00881748
-0.14406276 -0.21942316 -0.011683295 0.12393776 0.09159785 -0.021363748 0.056389358 0.17330903
0.12642588 -0.13360934 -0.046103433 0.17753753 0.15763243 -0.0023146158 -0.025848176 -0.032678775
-0.13779065 -0.13461795 -0.019919805 -0.12482206 -0.005727118 -0.09422139 -0.033844627 -0.12538333
-0.089955285 0.12785657 -0.0050302767 0.019150984 -0.15425643 0.15660727 -0.13768435 0.056157596
-0.04357119 -0.047572643 -0.079217836 0.10890115 -0.16520818 0.098182864 -0.020757742 0.11734647
-0.051451467 -0.011137127 0.08576723 -0.13093913 0.035352297 -0.10152721 -0.051891126 -0.2082996
0.114415206 0.08145082 -0.09012968 -0.014531346 0.12314966 -0.2678903 0.08904466 -0.103198014
-0.10466549 -0.002257069 -0.038053825 -0.048040904 0.11593155 -0.057636455 0.04384598 0.07254804
-0.09373487 -0.12193314 0.07782978 0.12164286 0.039488297 0.07378269 0.101018436 0.08772164
0.07008006 0.010922559 -0.022867817 0.12280632 0.19960812 -0.038260538 -0.06524825 0.16557194
-0.13880658 0.0017410755 -0.08158346 0.062312778 -0.028097784 0.013923435 0.15782678 0.07881409
0.12412893 0.17331253 0.16527845 0.055810645 -0.12788798 -0.02822201 -0.1388293 0.0009061973
-0.1495693 -0.068421744 -0.13999844 -0.08370166 0.091954015 -0.10788627 0.10445114 -0.14282107
-0.014747508 0.118093245 0.027674323 -0.012245862 -0.066368565 -0.05441059 -0.009749448 0.08601607
-0.061354015 -0.022144133 -0.011508971 -0.015982553 -0.13691014 -0.024652733 -0.049627967 -0.08146937
0.14107215 -0.12980889 0.07043665 -0.14969751 -0.14092508 -0.0008379026 0.16985545 0.15151575
0.17726114 -0.086749 -0.13656996 -0.004859614 0.023322 0.1121575 0.040886678 -0.08154806
00000000: 2267 e2bc 21e8 0cbe 6c4c b7bc 8a96 53bd
00000010: fb51 2f3e ce6e dcbd afbb f13d 1856 dcbd
00000020: 0a7a b0bd 3d41 bebc cb58 093e 9e9f 2bbe
00000030: 2496 ea3d 0408 253e 705e b5bd 7361 32be
00000040: 4a9b b0bd ac9c e53d 0c05 613d beb8 4c3e
00000050: 7bfe 77bd ec20 d0bd dce4 b83d a93a 043e
00000060: a24d 263c 23c8 fcbd f106 41bd 7cc6 19bd
00000070: 4444 4d3d 2c6d 05be d674 6ebd 2e40 15bc
00000080: e93e 31be 4109 6cbe 01ef 163e b988 ca3d
00000090: 033b 0cbd ba27 613e 41be 97bd e845 333d
000000a0: 5cf1 513d 95d8 ac3c 5362 82bd 5dfe f43d
000000b0: a492 14be 2969 80bd 27c0 433d 9874 273e
000000c0: 50f4 82bd 9b02 4bbd 5304 533d e5c4 2abd
000000d0: cdb7 cf3d 53fd 89bc 4424 2bbe b0f9 ba3d
000000e0: 0c31 ebbd e997 2fbe 050f d8bc 9c7c 9bbd
000000f0: 402b 963d d446 a3bc 95f5 713d 42a3 813d
00000100: f3dc 2c3e 9d2b 0fbc 7e8c a63d db68 3abe
00000110: c633 29be 5336 88bd f4a2 19bd e07f b33d
00000120: fedb a43c b740 293d 29d3 023e a6cb 5b3d
00000130: 5dfc c33c 3a72 0d3e f887 e13d 345c d73d
00000140: 90c0 1ebe 15de 01be 5de9 763d f3a2 66bd
00000150: dfd8 16be 4961 513d ff6e 373e 436a 0abe
00000160: 749f e7bb bd20 d2bc 7563 fa3d 3afe 20bd
00000170: ad1c 003d 552a ffbd 074d 133e 1a93 23be
00000180: 02ef 5fbd 9305 8d3d c6c3 fb3d 4d26 76bd
00000190: 7eaa 1cbd 86d4 393d a90a b2bd 706f 513e
000001a0: e27e 37be d79c 59be b8ab 64bb f969 623e
000001b0: e3de 863d 2e9d f83d 9f3a e6bc 8129 4b38
000001c0: 06ba 3abd 0a70 193d 2f92 cdbd b1c0 55bd
000001d0: 5f6e a2bd d8d7 a739 d5ce 90bd 3177 103c
000001e0: 3085 13be 77b0 60be 4a6b 3fbc 15d3 fd3d
000001f0: a797 bb3d 0703 afbc 87f8 663d ec77 313e
00000200: c975 013e e3d0 08be f4d6 3cbd 66cc 353e
00000210: 656a 213e cfb0 17bb 8ebf d3bc 2eda 05bd
00000220: fe18 0dbe 4ad9 09be dc2e a3bc b5a2 ffbd
00000230: 8caa bbbb 25f7 c0bd aaa0 0abd 7d64 00be
00000240: 7a3a b8bd d5ec 023e 05d5 a4bb 86e2 9c3c
00000250: 66f5 1dbe a85d 203e 20fd 0cbe 8205 663d
00000260: b477 32bd 88db 42bd f63c a2bd 9107 df3d
00000270: 552c 29be 1914 c93d 240c aabc 5953 f03d
00000280: c6be 52bd 7f78 36bc bba6 af3d e814 06be
00000290: 92cd 103d 7fed cfbd ca8b 54bd 7e4c 55be
000002a0: 8552 ea3d b0cf a63d e995 b8bd e214 6ebc
000002b0: e435 fc3d eb28 89be 0c5d b63d 7b59 d3bd
000002c0: dc5a d6bd 56eb 13bb 54de 1bbd 8ac6 44bd
000002d0: 856d ed3d 3414 6cbd d897 333d 1194 943d
000002e0: 11f8 bfbd 15b8 f9bd 3865 9f3d e41f f93d
000002f0: 7bbe 213d 611b 973d c1e2 ce3d 67a7 b33d
00000300: 2286 8f3d 88f4 323c 4a55 bbbc e181 fb3d
00000310: 1266 4c3e 15b7 1cbd e0a0 85bd b18b 293e
00000320: 5023 0ebe cd34 e43a 3b15 a7bd af3b 7f3d
00000330: 532d e6bc 1e1f 643c 589d 213e 4869 a13d
00000340: 4f37 fe3d d778 313e c13e 293e b499 643d
00000350: 11f5 02be d831 e7bc 4529 0ebe df8d 6d3a
00000360: b228 19be b320 8cbd c05b 0fbe c76b abbd
00000370: 6352 bc3d 7af3 dcbd 7bea d53d b03f 12be
00000380: 889f 71bc dfda f13d 43b5 e23c dea2 48bc
00000390: 3eec 87bd a4dd 5ebd 26bc 1fbc 3129 b03d
000003a0: 594e 7bbd 9d67 b5bc 2090 3cbc d8ed 82bc
000003b0: 2c32 0cbe 87f4 c9bc b246 4bbd 6ad9 a6bd
000003c0: 3875 103e 9fec 04be 1741 903d 4e4a 19be
000003d0: aa4e 10be b1a6 5bba 96ee 2d3e f226 1b3e
000003e0: f283 353e 76a9 b1bd ffd8 0bbe 663d 9fbb
000003f0: c70d bf3c d5b2 e53d ca78 273d ab02 a7bd

fc2.bias f4 [10]
0.08279972 0.056303456 -0.09489612 -0.06387319 -0.017476542 0.0044616186 0.018920053 0.012576768
0.07107345 0.07033456
00000000: e692 a93d 749e 663d e658 c2bd f2cf 82bd
00000010: f72a 8fbc c532 923b 3afe 9a3c ca0e 4e3c
00000020: f58e 913d 910b 903d
