cnn/pt/CCNN.pt (torch, 797178 bytes, 24 tensors)

conv1.weight f4 [16, 1, 5, 5]
0	0xbe769e9f	-0.24083947
1	0x3d9a3576	0.07529728
2	0xbe8d5c31	-0.276094
3	0x3db00e9b	0.08596536
4	0x3dbfe1d9	0.09369249
5	0xbe3ba8d9	-0.18326129
6	0xbe00147e	-0.12507817
7	0xbdb906e0	-0.090345144
8	0x39e1e6cb	0.00043087298
9	0x3e3c2ded	0.18376894
10	0x3d9d416a	0.07678492
11	0xbcdb5bc5	-0.026777158
12	0xbd24b225	-0.040208954
13	0x3e5f60f1	0.21814324
14	0xbcd92fbe	-0.026512023
15	0xbe7277e9	-0.23678555
16	0x3dd747c8	0.10511738
17	0xbca65686	-0.02030493
18	0x3e22e6aa	0.15908304
19	0x3e517f4a	0.20458713
20	0xbe4cbebd	-0.19994636
21	0xbcb7fb3a	-0.022458661
22	0x3e1d4cf4	0.15361387
23	0x3e031da1	0.12804271
24	0x3c485181	0.012226463
25	0xbea5c0e6	-0.32373732
26	0xbe8d9911	-0.27655843
27	0xbdec0c76	-0.11525814
28	0x3e08cca8	0.1335932
29	0x3e6cc922	0.23123601
30	0xbed4d573	-0.415691
31	0xbe86dbe1	-0.2633963
32	0x3e0baaa3	0.13639311
33	0x3e8b463c	0.27202022
34	0x3e3408cb	0.17581479
35	0xbdce322e	-0.10068165
36	0x3e01e82d	0.12686224
37	0xbe39ee85	-0.18157394
38	0x3e49da13	0.19712095
39	0x3dc626cc	0.09675369
40	0xbd50cf47	-0.050978925
41	0xbde15bc8	-0.11003834
42	0xbe81e953	-0.25373325
43	0xbe889504	-0.2667619
44	0x3df6b08a	0.12045391
45	0x3dba7a46	0.09105353
46	0x3d6d1304	0.057879463
47	0xbe2e9a1f	-0.1705098
48	0xbe197fee	-0.14990208
49	0x3dd15e1b	0.10223027
50	0x3dc54c56	0.096337005
51	0x39d1c026	0.00040006748
52	0x3ce218e5	0.027599761
53	0xbe5d3892	-0.21603611
54	0xbe6871c5	-0.2269965
55	0xbd945218	-0.07242221
56	0x3e0ccd3f	0.1375017
57	0x3e6599ca	0.22421947
58	0x3e51a3da	0.2047266
59	0xbebbdc8f	-0.3669171
60	0x3d0afad4	0.033930615
61	0x3e34cbac	0.1765582
62	0x3df3048c	0.118661016
63	0x3e3ea007	0.18615733
64	0xbe4fab9b	-0.20280306
65	0xbe20c31d	-0.1569943
66	0xbe93708f	-0.28796813
67	0x3e65d03a	0.22442713
68	0x3e8513d0	0.25991678
69	0xbe72a0e7	-0.23694192
70	0xbe913438	-0.28360152
71	0xbeb69300	-0.35659027
72	0x3de9c847	0.11415153
73	0x3e2677b8	0.16256607
74	0x3df1a822	0.11799647
75	0x3e3b729c	0.18305439
76	0x3e6c4626	0.23073635
77	0x3e19dcdb	0.15025656
78	0xbe9c023c	-0.30470455
79	0xbebd21ed	-0.36939946
80	0x3dba9d9f	0.09112095
81	0x3d5fb27b	0.05461357
82	0xbf5572f8	-0.83378553
83	0xbf090733	-0.5352661
84	0xbe4478c9	-0.19186701
85	0xbd1337c4	-0.035941854
86	0xbf368ac0	-0.71305466
87	0xbf11cf35	-0.569568
88	0x3e037829	0.12838806
89	0x3e958b44	0.29207814
90	0xbec7b6cb	-0.39006647
91	0xbf056a03	-0.52114886
92	0x3d82d072	0.06387414
93	0x3e8cd79f	0.27508256
94	0x3dc58df6	0.096462175
95	0xbf17f959	-0.5936485
96	0xbe3e3a77	-0.1857699
97	0x3d94a52d	0.07258067
98	0x3cdf6b88	0.027272955
99	0x3e970b79	0.2950094
100	0x3d686d52	0.05674488
101	0xbd6adac7	-0.05733755
102	0xbeb5e459	-0.35525778
103	0xbe6e745f	-0.2328658
104	0x3b08511f	0.0020800305
105	0x3df37fba	0.11889596
106	0x3e0522ee	0.13001606
107	0xbe194887	-0.14969073
108	0x3e6f840d	0.23390217
109	0x3d7df1f2	0.061998315
110	0xbe47603e	-0.19470307
111	0x3e319003	0.17340092
112	0x3e558c43	0.20854287
113	0x3d93a556	0.0720927
114	0xbdc957f3	-0.09831228
115	0x3df0a02f	0.117493026
116	0x3e82462c	0.25444162
117	0xbd5dca38	-0.05414793
118	0xbe407107	-0.18793117
119	0xbe3f870e	-0.18703863
120	0xbd2f10bd	-0.042740572
121	0x3e88afb7	0.2669656
122	0x3de0e6be	0.109815106
123	0xbe3b0def	-0.18267034
124	0xbdc93052	-0.098236695
125	0xbd86da62	-0.06584622
126	0xbe300285	-0.17188461
127	0x3e4d62f4	0.20057279
128	0x3d8bf194	0.06833187
129	0xbe3b1c17	-0.18272434
130	0x3e91912c	0.2843107
131	0x3e79830c	0.24366397
132	0x3cdac086	0.02670313
133	0x3e762751	0.24038436
134	0x3dcfff61	0.101561315
135	0x3e0f2704	0.13979727
136	0xbe325695	-0.17415841
137	0x3d2e5460	0.042560935
138	0x3e758e88	0.23980153
139	0xbda0e000	-0.078552246
140	0xbe2f0859	-0.17093028
141	0x3d5a1371	0.053241197
142	0xbc108471	-0.008820639
143	0xbe8e4cb9	-0.2779291
144	0x3e4c82af	0.19971727
145	0xbeba0a8e	-0.36336178
146	0xbe74ace2	-0.23894075
147	0xbeed0ed8	-0.46300387
148	0xbd4c72d2	-0.04991419
149	0xbe4b949d	-0.1988091
150	0x3e92edd6	0.2869708
151	0xbd7a29c9	-0.061075006
152	0x3e10b1ad	0.14130278
153	0xbe5a7d0f	-0.21336769
154	0xbc20c563	-0.009812686
155	0x3e7fd288	0.24982655
156	0x3dacd9ea	0.08440001
157	0xbdcb6d8d	-0.099330045
158	0xbef94eda	-0.4869297
159	0x3e1a93dd	0.15095468
160	0x3ec2b4cd	0.38028565
161	0x3da5c54b	0.08094271
162	0xbef5c3b2	-0.48000866
163	0xbec6ad01	-0.38803867
164	0x3e6c9e04	0.23107153
165	0x3e0699f3	0.13144664
166	0xbe7299d4	-0.23691493
167	0xbeea7239	-0.4579027
168	0xbd2cd318	-0.042193502
169	0x3ea36fd9	0.3192127
170	0xbb4c7443	-0.0031197227
171	0xbcdead91	-0.027182372
172	0xbe60f9d8	-0.21970308
173	0x3dc0ab91	0.09407724
174	0x3e0e45c3	0.138938
175	0x3cfe94d2	0.031076822
176	0x3dcc71db	0.09982654
177	0x3def5da7	0.11687785
178	0xbdfef5c7	-0.12449222
179	0xbf0bd306	-0.5461887
180	0xbd73dabb	-0.05953477
181	0xbe51da05	-0.20493324
182	0x3e809ffa	0.25122052
183	0x3e3f7444	0.18696696
184	0xbe8d3d93	-0.2758604
185	0xbd27a459	-0.04092822
186	0xbdf20909	-0.118181296
187	0x3c88ff60	0.016723335
188	0xbca57976	-0.020199519
189	0x3dfbdb5c	0.12297699
190	0xbe3702bd	-0.17872138
191	0x3e87f27d	0.2655219
192	0x3e289e90	0.16466737
193	0xbdf59e29	-0.11993057
194	0xbddb3fa3	-0.10705497
195	0x3e25ed39	0.16203775
196	0xbc972052	-0.018448029
197	0x3d40721b	0.04698382
198	0xbd4ee456	-0.050510727
199	0x3db67b0a	0.089101866
200	0x3e0f25fe	0.13979337
201	0x3e34ea97	0.17667614
202	0x3e7a0db7	0.24419294
203	0x3e4c789e	0.19967887
204	0xbdbb74f4	-0.091531664
205	0xbe917b9a	-0.28414613
206	0x3cc23215	0.023705522
207	0xbdc23ad7	-0.09483879
208	0xbef9ab58	-0.48763537
209	0xbef7b89b	-0.4838303
210	0xbe58e5e8	-0.21181452
211	0xbeb73f3f	-0.3579044
212	0xbe70748c	-0.23481959
213	0xbe196b70	-0.1498239
214	0xbd9bf9e5	-0.07616023
215	0x3d392268	0.045198828
216	0xbd9a6748	-0.075392306
217	0x3cb8f527	0.022577835
218	0x3d0a1a9f	0.033716794
219	0x3e84f90d	0.2597126
220	0x3e5bd3fb	0.21467583
221	0x3e8a7334	0.27041018
222	0x3db5eb7a	0.08882804
223	0x3eb6577f	0.3561363
224	0x3e6d9b8e	0.2320387
225	0xbd9431dc	-0.072360724
226	0xbe7ee4cd	-0.24891968
227	0xbe46ed67	-0.194265
228	0x3d2760c2	0.04086376
229	0x3d1a7ed8	0.037718624
230	0xbdc0ecac	-0.094201416
231	0xbe0a94ec	-0.13533372
232	0xbd6aff4b	-0.057372373
233	0xbccb8152	-0.024841938
234	0xbe5e1131	-0.21686246
235	0x3c35a60d	0.011086953
236	0xbdbc5d65	-0.09197501
237	0x3e2ba42c	0.16761845
238	0x3daba2fa	0.08380695
239	0xbe42af96	-0.19012293
240	0x3e4ec1ea	0.2019116
241	0x3e4eeb65	0.20206983
242	0xbdbee576	-0.0932111
243	0xbd4f2ea9	-0.050581608
244	0xbdcefcbb	-0.10106798
245	0x3e5ecbb9	0.21757402
246	0xb7ae6f79	-2.0794325e-05
247	0x3e07ff7d	0.13281055
248	0x3e65179b	0.22372286
249	0x3e808da9	0.25108078
250	0x3c107b31	0.008818434
251	0x3d2180c7	0.039429452
252	0xbda17c8d	-0.07885084
253	0x3da12f2b	0.07870325
254	0x3e138926	0.14407787
255	0xbda0a57c	-0.07844064

conv1.bias f4 [16]
0	0xbe3ecdd1	-0.186332
1	0xbdbabf8e	-0.091185674
2	0xbe3f1cf3	-0.18663387
3	0x3e2c1ea3	0.16808562
4	0xbe916b1c	-0.2840203
5	0xbc0a4ae3	-0.008440706
6	0xbd98b814	-0.07456985
7	0xbe0fb032	-0.14032057
8	0xbd70e7cc	-0.05881481
9	0xbdbaab42	-0.09114696
10	0xbe5cb753	-0.21554308
11	0xbd8c1e76	-0.068417475
12	0xbe1f654a	-0.15565982
13	0xbe5af771	-0.21383454
14	0xbd16710c	-0.036728904
15	0x3bec850f	0.0072180103

conv2.weight f4 [32, 16, 5, 5]
0	0xbc94e1db	-0.018174103
1	0x3cbbe360	0.02293557
2	0x3dc67318	0.09689921
3	0x3d85dc75	0.065361895
4	0xbc9872ef	-0.018609492
5	0xbe440e43	-0.19146065
6	0xbd37a67a	-0.0448365
7	0x3d5769c1	0.05259109
8	0x3d2ef96c	0.042718336
9	0xbdb5ab3b	-0.0887055
10	0xbd434e31	-0.04768199
11	0xbe2161f9	-0.1576003
12	0xbe0ae521	-0.13563968
13	0xbddcc374	-0.10779467
14	0xbd346618	-0.044042677
15	0x3cc1e1c2	0.02366722
16	0x3ba3285b	0.004979176
17	0xbbe66c15	-0.0070319274
18	0x3d2a251c	0.041539297
19	0x3cd72bf0	0.026266068
20	0x3c70b1ec	0.014690857
21	0x3c4d32f8	0.012524359
22	0x3da816fd	0.0820751
23	0x3d1680e4	0.036744013
24	0xbcd27d53	-0.025694525
25	0x3e012976	0.12613472
26	0x3ddc3c0b	0.1075364
27	0x3dc1b585	0.0945845
28	0xbd51b1bd	-0.051194895
29	0xbac6e8cc	-0.001517558
30	0x3d6006ef	0.054694112
31	0x3e409822	0.18808034
32	0x3d897c77	0.06713193
33	0x3da7f7af	0.08201539
34	0xb934db53	-0.00017247842
35	0xbe361c19	-0.17784156
36	0x3e03be41	0.12865545
37	0x3dcfc0d9	0.10144205
38	0x3df80ae1	0.1211145
39	0xbaaf613b	-0.0013380417
40	0xbd6eb309	-0.05827621
41	0xbe48f5c0	-0.19624996
42	0xbe5c23be	-0.2149801
43	0xbe07e245	-0.13269909
44	0xbd008a2c	-0.03138177
45	0x3c2fff3d	0.010742006
46	0x3e15dbf6	0.1463469
47	0x3de669c2	0.112506405
48	0xbc510ad5	-0.01275893
49	0xbbfcf81f	-0.007720008
50	0xbc4d6c89	-0.012538084
51	0x3e474e4b	0.1946346
52	0xbb362b15	-0.0027796675
53	0xbd2fb134	-0.042893603
54	0xbe2767d1	-0.16348197
55	0xbb84bdab	-0.0040509305
56	0x3d915945	0.07097105
57	0x3c55b688	0.013044007
58	0x3ceb89ef	0.028752295
59	0x3d7bc36e	0.061465673
60	0xbe1d2dc9	-0.15349497
61	0xbda42eab	-0.08016714
62	0xbd97aa3c	-0.074055165
63	0x3d36567a	0.044516064
64	0x3dd2f6e8	0.10301
65	0xbc274386	-0.01020897
66	0x3da4d7bf	0.08048963
67	0xbddad876	-0.10685818
68	0xbd7815ac	-0.060567543
69	0xbe06071a	-0.13088647
70	0x3d553b19	0.052058313
71	0x3e0b4f36	0.13604435
72	0x3bdc7a31	0.0067284335
73	0xbba84b18	-0.005135905
74	0xbd9d0c87	-0.07668405
75	0xbced2e20	-0.028952658
76	0xbd808077	-0.06274503
77	0x3e2a4cc9	0.16630854
78	0x3e5eb7ed	0.2174985
79	0xbd567040	-0.052353144
80	0xbe3f9f59	-0.1871313
81	0xbc43beec	-0.011947375
82	0x3dc66788	0.09687716
83	0x3da050b5	0.07827894
84	0xbd90d081	-0.07071019
85	0x3de3ee5d	0.111294486
86	0xbe01f2ae	-0.12690231
87	0xbdd80a5f	-0.10548853
88	0x3c812ec2	0.015769366
89	0xbd8c3c64	-0.06847456
90	0x3e4ab019	0.19793738
91	0x3e24bed2	0.16088417
92	0x3e4ebf38	0.20190132
93	0x3e5092f6	0.20368561
94	0x3cfd9d95	0.03095893
95	0xbbb48d0d	-0.0055099786
96	0x3d6ce54d	0.057835866
97	0xbd36b3b8	-0.044604987
98	0x3d76bf86	0.060241245
99	0x3da5d863	0.08097913
100	0xbdcde2da	-0.10053034
101	0xbd6e2a99	-0.058146093
102	0xbab72cc3	-0.0013975132
103	0x3d6a5670	0.05721134
104	0x3d19a855	0.03751405
105	0xbe7beff8	-0.2460326
106	0xbe8b14a1	-0.27164176
107	0xbadd04b1	-0.001686236
108	0x3d333920	0.04375565
109	0xbabbccb7	-0.0014327978
110	0xbe23a77e	-0.15981862
111	0xbe8e0e65	-0.27745357
112	0xbe8cc40d	-0.27493325
113	0xbe64bc7e	-0.22337529
114	0xbde15d13	-0.110040806
115	0x3cfea304	0.031083591
116	0x3de5133a	0.11185308
117	0xbb544934	-0.0032392265
118	0xbdd64083	-0.104615234
119	0xbc98b5de	-0.018641409
120	0x3c99cc45	0.018774161
121	0x3d5874b6	0.05284568
122	0x3c492299	0.012276315
123	0x3caaf3f0	0.020868272
124	0x3cc66002	0.024215702
125	0x3cec0bb0	0.028814167
126	0x3d8ccf2c	0.068754524
127	0xbbd695c6	-0.006548616
128	0x3cde88cf	0.027164845
129	0x3d252999	0.040322874
130	0x3d3c442b	0.045963448
131	0x3dacc1f1	0.08435429
132	0x3c9401fc	0.018067352
133	0x3d837a34	0.06419793
134	0x3d9597c4	0.073043376
135	0x3d8ac387	0.06775575
136	0x3d4c1e5e	0.049833648
137	0x3d75f229	0.060045395
138	0x3d162a39	0.03666136
139	0x3e014d94	0.1262725
140	0xbe2158f2	-0.15756586
141	0xbe54f9d7	-0.20798431
142	0xbe87e14c	-0.26539075
143	0xbecc33a2	-0.39883143
144	0xbe0d5d93	-0.13805227
145	0x3d834ea0	0.06411481
146	0xbd9a291e	-0.07527374
147	0xbd0c613e	-0.034272425
148	0x3d1cfe35	0.03832837
149	0xbc8653bc	-0.01639735
150	0xbd8c9d23	-0.06865909
151	0xbcc533c0	-0.024072528
152	0x3e394fa5	0.18096788
153	0xbe365b23	-0.17808203
154	0xbd9b3068	-0.07577592
155	0xbe6ce005	-0.23132332
156	0xbe8c8f7f	-0.2745323
157	0xbc309580	-0.010777831
158	0xbe27ffc6	-0.16406164
159	0xbd309b8c	-0.04311709
160	0xbec76454	-0.38943732
161	0xbf1e72a6	-0.6189369
162	0xbed6c587	-0.41947576
163	0xbe261fd2	-0.16223076
164	0xbe285983	-0.16440396
165	0xbe555244	-0.20832163
166	0xbe5a05d4	-0.21291286
167	0xbe6f18c2	-0.23349288
168	0xbe82b15b	-0.25525936
169	0xbe8914f5	-0.267738
170	0x3e0169b2	0.12637976
171	0x3d54b0c9	0.051926408
172	0xbd03da4e	-0.032190613
173	0xbd13e859	-0.036110256
174	0x3da43ab3	0.080190085
175	0xbe009183	-0.12555508
176	0xbd9340af	-0.07190072
177	0xbc070505	-0.008240943
178	0xbcd038c9	-0.025417702
179	0xbbc4e38e	-0.006008572
180	0xbe007bef	-0.12547277
181	0xbd554188	-0.05206445
182	0xbde1dcb8	-0.11028427
183	0x3cebba23	0.02877528
184	0xbc07175d	-0.008245316
185	0xbd2c3c7e	-0.042049877
186	0xbde39ff9	-0.11114497
187	0xbe1471bf	-0.14496516
188	0xbd85ac54	-0.065270096
189	0x3c4c7de3	0.012481186
190	0xbc31ccd2	-0.010852056
191	0xbd85bbbd	-0.06529949
192	0xbe4a2a8f	-0.19742797
193	0xbd9a31d2	-0.07529034
194	0x3d1580a4	0.036499634
195	0xbd28a74b	-0.041175168
196	0x3df20d77	0.118189745
197	0x3d7f4263	0.06231917
198	0xbd50b536	-0.050954066
199	0xbd07ab45	-0.03312232
200	0xbe01346a	-0.1261765
201	0xbd3c4a06	-0.04596903
202	0x3df185ad	0.11793075
203	0x3dad5f37	0.084654264
204	0x3e0ac354	0.13551074
205	0xbe78e27d	-0.24305148
206	0xbe57b775	-0.21066077
207	0xbd9181f6	-0.07104866
208	0x3ddc015e	0.10742448
209	0x3e43fcea	0.19139448
210	0x3e8cac6c	0.27475297
211	0x3d9de82b	0.07710298
212	0x3cb276a8	0.021785095
213	0xbcdca937	-0.026936157
214	0xbd2d0423	-0.042240273
215	0x3e0a8cf1	0.13530327
216	0x3df6cc16	0.12050645
217	0x3dde30b0	0.1084913
218	0x3d5ecef6	0.054396592
219	0xbcb3558b	-0.021891376
220	0xbd195545	-0.037434835
221	0xbc473f67	-0.012161112
222	0xbd623e0e	-0.05523496
223	0xbd184e7d	-0.037184227
224	0x3c22bfc3	0.009933415
225	0xbd85a0d7	-0.065248184
226	0xbcf296b4	-0.029612876
227	0xbc2cd0ef	-0.0105478605
228	0x3d7da527	0.06192508
229	0x3c175bbf	0.009238183
230	0xbde2cb4c	-0.11073932
231	0xbd7de375	-0.061984498
232	0xbdae4feb	-0.08511337
233	0xbb8c6da7	-0.0042855325
234	0xbd72f17b	-0.059312325
235	0x3e1aa4f1	0.15101983
236	0x3dcf0fce	0.101104364
237	0xbd9f7a8e	-0.07787047
238	0xbe78998f	-0.24277328
239	0xbe47c90d	-0.19510289
240	0x3e5c06bb	0.21486942
241	0x3e0b9b34	0.13633424
242	0x3d987b4b	0.07445391
243	0x3d01d566	0.031697653
244	0xbd379acf	-0.04482537
245	0xbd066b72	-0.03281731
246	0x3cc0a5e5	0.023516605
247	0x3d6818f2	0.056664415
248	0x3d319177	0.043351617
249	0x3d10646b	0.035252016
250	0xbdeb5da4	-0.1149247
251	0xbd3d8d68	-0.046277434
252	0x3d930db4	0.07180348
253	0x3d3a5e00	0.0454998
254	0x3dd2eb64	0.102988034
255	0xbdcf7a5d	-0.10130761

conv2.bias f4 [32]
0	0x3cdc293c	0.02687513
1	0xbc20a63a	-0.0098052565
2	0x3bdd5617	0.0067546475
3	0xbe4345b7	-0.19069563
4	0xbcee07b2	-0.029056404
5	0xbd67d18f	-0.056596335
6	0x3d0e9279	0.034807656
7	0xbd87b4f2	-0.066263095
8	0x3a5a7245	0.00083330675
9	0xbd3f3864	-0.046684638
10	0xbb88e76e	-0.004177979
11	0x3d4480f9	0.04797456
12	0xbda9a73a	-0.08283849
13	0xbd2e2be9	-0.042522345
14	0xbc7fb3fa	-0.015606875
15	0xbd3c2663	-0.045935046
16	0xbd7015f4	-0.058614686
17	0xbb102e59	-0.0022000282
18	0xbcf84345	-0.030305514
19	0xbd462108	-0.048371345
20	0x3d2e9938	0.04262659
21	0xbc6c85a5	-0.01443616
22	0x3ccd6146	0.025070798
23	0xbd9d1fb7	-0.07672065
24	0xbd587a87	-0.052851226
25	0x3d79aab3	0.060953807
26	0xbd5477b7	-0.05187198
27	0xbccba4e6	-0.024858903
28	0x3c298260	0.010346025
29	0xbdeb02da	-0.11475153
30	0xbd8db1f5	-0.06918708
31	0x3bc07ec8	0.0058744885

fc1.weight f4 [100, 512]
0	0xbbd9985e	-0.006640478
1	0x3c3ff675	0.011716475
2	0xbd6c0f27	-0.057631638
3	0xbc7326df	-0.014840811
4	0x37dd219f	2.6360909e-05
5	0x3db81b94	0.08989635
6	0xbc2b3af9	-0.010451072
7	0x3d7c8b21	0.06165612
8	0x3d7e492f	0.062081512
9	0x3e277ead	0.16356917
10	0xbd0a8336	-0.03381654
11	0xbd1952a0	-0.037432313
12	0x3d1ff929	0.039055977
13	0x3e0327ca	0.12808147
14	0x3d8b841d	0.06812308
15	0xbdb0a101	-0.08624459
16	0x3d8b435e	0.06799959
17	0x3d6ae316	0.057345472
18	0x3d832699	0.06403846
19	0xbbe14037	-0.00687411
20	0xbd7a4377	-0.061099496
21	0x3bb55d01	0.0055347686
22	0xbb405bdb	-0.0029351625
23	0xbd0cbd1f	-0.034360047
24	0xbe55730e	-0.20844671
25	0x3c050d30	0.00812082
26	0x3d778724	0.060431615
27	0xbdb020d1	-0.08600009
28	0x3c536143	0.012901607
29	0x3e252251	0.16126372
30	0x3d762558	0.060094208
31	0x3d0f196f	0.034936365
32	0x3c6621e3	0.014046165
33	0x3c675fba	0.014121944
34	0x3a0d1c89	0.0005382975
35	0xbddc138d	-0.107459165
36	0xbdd5ddc1	-0.10442687
37	0x3e065961	0.13120033
38	0x3deb9363	0.11502721
39	0x3e097fdc	0.1342768
40	0x3d821f57	0.06353634
41	0x3dce1049	0.100617
42	0x3dce4be0	0.10073066
43	0xbcf71261	-0.030160131
44	0xbdca6ea2	-0.09884383
45	0xbda85694	-0.082196385
46	0xbd1a6bef	-0.03770059
47	0x3df83fcd	0.12121544
48	0x3d1eb9ea	0.03875152
49	0x3db40325	0.08789662
50	0xbd8f79fd	-0.07005689
51	0x3cdcb65b	0.026942423
52	0xbca856be	-0.020549174
53	0xbe166ffb	-0.14691155
54	0xbbc4c16f	-0.0060045044
55	0xbbdef402	-0.0068039903
56	0x3e68b001	0.2272339
57	0xbc97d682	-0.018534902
58	0xbd0b2ef1	-0.033980314
59	0xbdbb788c	-0.09153852
60	0x3dfbb8c2	0.12291099
61	0xbe4a0175	-0.19727118
62	0xbd364983	-0.0445037
63	0x3d09d5bf	0.03365111
64	0x3d36dd5f	0.04464471
65	0xbd265acd	-0.040613938
66	0x3e3acae7	0.18241464
67	0x3ea5952c	0.32340372
68	0x3d802ee8	0.06258947
69	0xbd7a6844	-0.06113459
70	0x3ca73e52	0.020415459
71	0x3b0b15a6	0.002122262
72	0xbd01c9a3	-0.031686436
73	0xbdb083fb	-0.08618923
74	0xbd71033d	-0.05884098
75	0xbadaccf8	-0.0016693166
76	0x3e0ddb21	0.13853122
77	0x3dd80b25	0.10549001
78	0xbdf8e6b5	-0.12153379
79	0xbdb006e3	-0.085950635
80	0x3db2adfa	0.0872459
81	0x3ceaf6ea	0.02868219
82	0xbd86c85c	-0.06581184
83	0x3e0b4989	0.1360227
84	0x3e3fc608	0.18727887
85	0x3a1e196f	0.00060310116
86	0xbc798852	-0.015230255
87	0x3e292585	0.16518219
88	0x3e5c5ae2	0.21519044
89	0x3cb461a6	0.022019219
90	0xbd185387	-0.037189033
91	0xbe8308da	-0.2559269
92	0x3e835778	0.2565267
93	0x3df0eece	0.117642984
94	0xbc35dc0d	-0.0110998275
95	0xbdac0436	-0.08399241
96	0xbdd4760d	-0.10374079
97	0xbcbc1cf5	-0.022963027
98	0x3d09c7c9	0.033637796
99	0xbde3566b	-0.11100467
100	0xbe52fb80	-0.20603752
101	0x3c123456	0.008923611
102	0x3e099f14	0.1343959
103	0x3e42c8f4	0.1902197
104	0xbd901fd8	-0.07037324
105	0x3d23ca43	0.039987814
106	0x3defdd85	0.11712173
107	0x3d07be76	0.033140622
108	0xbd1b0429	-0.037845764
109	0x3dbb1eb3	0.09136715
110	0x3dd827d8	0.105544746
111	0x3d55a63d	0.05216049
112	0x3c978a46	0.018498551
113	0xbc59065d	-0.013246146
114	0xbd0d78f5	-0.03453918
115	0xbc6d7039	-0.014492088
116	0xbd2c033d	-0.041995276
117	0xbc233fb6	-0.00996392
118	0xbce3141b	-0.027719548
119	0x3c877262	0.016534034
120	0x3d1586be	0.036505453
121	0x3ce26e46	0.027640473
122	0x3bbd5f36	0.0057791723
123	0xbd06bc5f	-0.03289449
124	0x3d864ce0	0.065576315
125	0xbb7a5cc2	-0.003820226
126	0x3d3f7250	0.046739876
127	0x3d0d66f9	0.03452203
128	0xbda4a58d	-0.08039389
129	0xbd242b0d	-0.04008012
130	0xbdacfaac	-0.08446249
131	0xbe12cdd2	-0.14336327
132	0xbdfc0747	-0.123060755
133	0x3cbbafca	0.022910971
134	0x3dc06e3c	0.093960255
135	0x3da26f40	0.079313755
136	0x3d58e704	0.05295469
137	0x3db507e3	0.08839395
138	0x3dba9a23	0.091114305
139	0x3db3a3ea	0.087714985
140	0x3d3f7f1f	0.04675209
141	0x3dabe2fd	0.08392904
142	0x3c94edf0	0.018179864
143	0xbd21eba6	-0.039531372
144	0xbdf36ad5	-0.11885611
145	0xbd239cd3	-0.03994448
146	0xbcda57fc	-0.026653282
147	0xbd99ba90	-0.07506287
148	0xbe8fb502	-0.28067786
149	0xbd4cc77c	-0.04999493
150	0xbc9a7fa6	-0.018859696
151	0x3d806325	0.0626891
152	0xbe1ef93d	-0.15524764
153	0x3d1a2f69	0.03764287
154	0x3e1068e2	0.1410251
155	0x3d2576c1	0.040396456
156	0x3c59fb44	0.013304535
157	0x3ce16d1c	0.027517848
158	0x3d5d112d	0.05397146
159	0x3d9b9540	0.075968266
160	0x3e1dec33	0.15422134
161	0xbd3430a0	-0.043991685
162	0x3d9345ea	0.071910694
163	0xbd9667da	-0.07344027
164	0xbc5fa1ce	-0.013649417
165	0xbc5bbf6e	-0.01341234
166	0x3ce6bbdd	0.028165752
167	0xbd93b341	-0.07211924
168	0xbcdbfe75	-0.026854733
169	0xbe019780	-0.12655449
170	0x3c25bb03	0.010115388
171	0xbc99edb8	-0.018790111
172	0x3b827d8c	0.0039822515
173	0xbc8febbe	-0.017568465
174	0x3e4cb28f	0.1998999
175	0x3df1454c	0.117807955
176	0x3c911b39	0.017713176
177	0x3d85d0f1	0.06533993
178	0x3d67f796	0.0566326
179	0x3bf326e1	0.007420406
180	0x3c624de4	0.013812516
181	0xbdcbdee8	-0.09954625
182	0x3d1fbc3e	0.03899788
183	0xbdd26d30	-0.10274732
184	0xbda9f1d0	-0.08298075
185	0xbe7f9a53	-0.24961214
186	0xbd31678b	-0.043311637
187	0xbd376c94	-0.044781283
188	0x3d857621	0.06516672
189	0x3e047b70	0.12937713
190	0xbca5ae52	-0.020224724
191	0xbd749493	-0.059712004
192	0xbdc461fe	-0.09589003
193	0xbe2d5da9	-0.1693026
194	0xbd0c8416	-0.034305654
195	0x3c203723	0.009778771
196	0xbd37485c	-0.04474674
197	0x3b5963eb	0.0033171128
198	0x3daad22d	0.08340869
199	0x3e52005e	0.20507953
200	0xbe0065e7	-0.12538873
201	0xbd5312b9	-0.051531527
202	0x3da8c86f	0.08241355
203	0x3c857b49	0.016294139
204	0x3cd2fce8	0.02575536
205	0x3e0f281e	0.13980147
206	0xb9f16851	-0.00046044824
207	0x3da297f7	0.07939141
208	0x3e63aac4	0.2223311
209	0x3e09c784	0.13455015
210	0x3d198afe	0.03748607
211	0xbe3cd88a	-0.18441978
212	0x3dde963a	0.10868497
213	0x3d845a49	0.06462533
214	0xbcbeacbe	-0.02327573
215	0xbe25a053	-0.1617444
216	0xbd9fccd3	-0.07802739
217	0x3ccc8967	0.024967862
218	0x3c51bf63	0.012801978
219	0xbce846a3	-0.028353995
220	0xbd83d292	-0.064366475
221	0xbd94b820	-0.072616816
222	0xbd3b076f	-0.045661386
223	0xbba676f8	-0.0050801
224	0xbe22f7ed	-0.15914889
225	0xbdc08aa2	-0.09401442
226	0x3d8f7ba0	0.070060015
227	0xbce10bff	-0.02747154
228	0xbdca6eba	-0.09884401
229	0xbab27368	-0.0013614716
230	0x3dfa26ea	0.122144535
231	0x3e1e87d1	0.15481497
232	0xbdbfb352	-0.093603745
233	0x3d449e97	0.048002806
234	0xbd3591d5	-0.04432853
235	0x3e39f0cf	0.18158267
236	0xbe1c78b9	-0.15280427
237	0xbd381399	-0.044940565
238	0xbc92c414	-0.017915763
239	0xbdada8c3	-0.08479454
240	0x3d66a63d	0.05631088
241	0x3d9d52bd	0.07681797
242	0x3dddec49	0.108360834
243	0x3c6036c8	0.013684936
244	0xbcb9b995	-0.0226715
245	0xbd013597	-0.031545248
246	0xbcece597	-0.02891807
247	0xbd63da11	-0.055627886
248	0xbde22e76	-0.11044018
249	0xbc8fb5c0	-0.01754272
250	0x3c821076	0.01587699
251	0xbe1ce366	-0.1532112
252	0xbe50bc87	-0.20384417
253	0x3d6131ad	0.054979015
254	0xbd8371ed	-0.06418214
255	0xbdb91363	-0.09036901

fc1.bias f4 [100]
0	0xbdd55ec4	-0.10418466
1	0xbbfb4bbe	-0.0076689413
2	0x3d30ac68	0.04313317
3	0xbc4f4b69	-0.0126522565
4	0x3d770bf1	0.060314123
5	0x3c15ae1c	0.009135749
6	0xbc9a6fbf	-0.018852113
7	0x3cf3630f	0.02971032
8	0x3cb05aef	0.021527736
9	0x3d00dd7f	0.031461235
10	0x3cbd1fc3	0.023086434
11	0x3c368c02	0.011141779
12	0xbd1e2b66	-0.038615607
13	0x3c0c4e00	0.0085635185
14	0xbd7653ee	-0.060138635
15	0x3d16071d	0.036627878
16	0x3d3e5768	0.046470076
17	0xbd441c49	-0.047878537
18	0xbca287e9	-0.019840198
19	0x3da8f0dc	0.08249065
20	0x3da81373	0.08206835
21	0xbcb0b383	-0.021569973
22	0x3cecca32	0.028905008
23	0x3d882cd0	0.06649172
24	0x3d388ca1	0.04505599
25	0x3da2e5f3	0.079540156
26	0xbc0235c8	-0.007947393
27	0x3d10ead7	0.03538021
28	0x3d867971	0.06566132
29	0x3d78c9f2	0.060739465
30	0xbc11f939	-0.008909517
31	0x3d352b1f	0.044230577
32	0x3daed151	0.08536018
33	0xbce4d0cf	-0.027931599
34	0xbd254b01	-0.040354732
35	0x3d8c9808	0.06864935
36	0x3e1656d1	0.14681555
37	0xbc9d28ab	-0.019184431
38	0x3a9bcf8b	0.0011887414
39	0xbc416c43	-0.011805597
40	0x3d045cbb	0.032314997
41	0x3cc44919	0.023960637
42	0x3c1ff0de	0.009762017
43	0x3dea6c77	0.11446469
44	0x3c9831ee	0.018578496
45	0x3ce723bb	0.02821528
46	0xbe128e91	-0.14312197
47	0xbc19fc88	-0.009398587
48	0x3d6142e2	0.054995425
49	0xbc3d5578	-0.011556022
50	0xbcaf9f58	-0.021438286
51	0xbddfaabd	-0.109212376
52	0x3d9154d9	0.070962615
53	0x3cc47779	0.02398275
54	0x3da336f4	0.07969466
55	0x3dbee1f4	0.09320441
56	0x3c880a0b	0.016606351
57	0xbc2b97a2	-0.010473164
58	0xbdf2b21e	-0.118503794
59	0x3d19761c	0.037466154
60	0xbbe6ba1e	-0.00704123
61	0xbcc7e465	-0.0244009
62	0xbd007dc7	-0.03136995
63	0x3db2439d	0.087043025
64	0x3d78d925	0.06075396
65	0x3da610be	0.08108662
66	0xbdec8eed	-0.115506984
67	0x3c6e890c	0.014559042
68	0xbdf06ea2	-0.117398515
69	0xbd496349	-0.04916695
70	0x3c70188d	0.014654291
71	0x3d959e3c	0.073055714
72	0xbda2d383	-0.07950499
73	0x3d29b99f	0.041436788
74	0xbd06584e	-0.032799058
75	0x3d2ec78f	0.042670783
76	0x3c956e73	0.018241143
77	0xbd59cedd	-0.053175796
78	0xbcd706ef	-0.026248423
79	0xbb45238e	-0.0030081007
80	0x3d0e1aaa	0.034693398
81	0x3d5316f7	0.051535573
82	0x3d931200	0.071811676
83	0x3d221ab9	0.039576266
84	0x3d1cfe3f	0.038328405
85	0xbd92788b	-0.07151898
86	0xbd5dff90	-0.0541988
87	0x3db1f23b	0.0868878
88	0x3d9171e4	0.07101801
89	0xbcd4432e	-0.02591094
90	0x3a0638ff	0.00051201874
91	0xbcb76f1c	-0.022391848
92	0xbbdc9834	-0.006732011
93	0x3cd587ae	0.026065674
94	0x3d15e7f1	0.03659815
95	0x3b8acaa2	0.0042355815
96	0xbd3811b0	-0.044938743
97	0xbcc0160d	-0.023448015
98	0xbdc9c8ff	-0.0985279
99	0x3c900110	0.017578632

fc2.weight f4 [10, 100]
0	0xbe68a73b	-0.22720043
1	0xbe28ce6b	-0.16484992
2	0xbe39313f	-0.18085192
3	0xbc061e37	-0.008185915
4	0x3e3213d0	0.1739037
5	0x3cb01a0f	0.0214968
6	0xbd73f50c	-0.059559867
7	0xbe46a1bd	-0.19397636
8	0xbcf0778f	-0.029353885
9	0xbe3be044	-0.1834727
10	0xbd8129eb	-0.06306823
11	0x3dbffb88	0.09374148
12	0x3e279f29	0.16369309
13	0xbe2f5617	-0.17122684
14	0xbd2a54f8	-0.04158494
15	0xbd6a40e3	-0.057190787
16	0x3e4f26a2	0.20229581
17	0xbe7250dd	-0.2366366
18	0xbe3fa583	-0.18715481
19	0xbe198368	-0.14991534
20	0xbc4d276f	-0.012521609
21	0x3e48050d	0.19533177
22	0xbe09001a	-0.13378945
23	0x3df6fa10	0.120594144
24	0xbe6c1c8c	-0.23057765
25	0x3d4e4426	0.05035796
26	0x3d145dce	0.03622227
27	0xbdf2969e	-0.11845134
28	0x3e88c4dd	0.26712695
29	0x3e596759	0.2123083
30	0x3ce4c755	0.02792708
31	0x3e2bde97	0.1678413
32	0xbd8ef082	-0.06979467
33	0xbdd27b2f	-0.10277402
34	0x3ded844c	0.11597499
35	0x3e06bd19	0.13158073
36	0x3e0448e0	0.12918425
37	0xbe39e28e	-0.1815283
38	0x3e38c340	0.18043232
39	0xbe2cb0ec	-0.16864365
40	0xbdc85f52	-0.09783806
41	0x3e350b1f	0.17680024
42	0xbe43e6b7	-0.1913098
43	0xbdb790d9	-0.089631744
44	0x3dcf7df8	0.101314485
45	0x3e0f11d7	0.13971649
46	0x3c468764	0.012117241
47	0x3de24489	0.11048228
48	0x3d421b29	0.047389183
49	0xbd41aacb	-0.04728202
50	0xbd3269a8	-0.043557793
51	0xbe71ee80	-0.23626137
52	0xbe4bc8c8	-0.1990081
53	0x3e624789	0.22097601
54	0xbb34946e	-0.0027554291
55	0xbe2d4778	-0.16921794
56	0xbd9fe98f	-0.0780822
57	0x3dd575f8	0.104228914
58	0x3c7fa4fb	0.015603299
59	0xbe516988	-0.20450413
60	0x3e09f750	0.13473248
61	0xbe111a0c	-0.14170092
62	0x3de08e95	0.10964695
63	0x3dba72af	0.091039054
64	0x3e2c3426	0.16816768
65	0xbdb76e2d	-0.08956561
66	0xbe904fd2	-0.28185898
67	0x3cab9893	0.020946776
68	0xbd115191	-0.03547818
69	0x3d771b94	0.060329035
70	0x3e687d0b	0.2270395
71	0xbdab8e11	-0.083767064
72	0xbe77bda9	-0.24193443
73	0xbdeaab3a	-0.1145844
74	0xbd5aa1bc	-0.0533769
75	0xbd52827d	-0.051393975
76	0x3e4459e0	0.1917491
77	0x3e0c1f34	0.13683778
78	0xbd4a7008	-0.049423248
79	0x3d9c94d0	0.07645571
80	0x3dd19f37	0.10235446
81	0x3d8b8392	0.068122044
82	0x3e8152f1	0.25258592
83	0xbe36746e	-0.17817852
84	0x3e06a310	0.13148141
85	0xbde9f731	-0.11424101
86	0x3e35d8f6	0.17758545
87	0xbd594c60	-0.053051353
88	0xbde0cbb9	-0.10976357
89	0xbdf284fa	-0.118417695
90	0x3d4a4d7a	0.049390294
91	0x3d58a889	0.052895103
92	0xbd5dbb8f	-0.054133948
93	0xbc2a6f5f	-0.0104025295
94	0xbdb36294	-0.08759037
95	0xbe5ebe29	-0.21752228
96	0xbe54cb66	-0.20780715
97	0xbd8070a5	-0.06271485
98	0x3dfa9dd6	0.12237136
99	0xbe2ae3d2	-0.16688469
100	0x3cbcca88	0.023045793
101	0xbe14d60a	-0.14534774
102	0x3bc28770	0.0059365556
103	0x3e3ed469	0.18635716
104	0xbd12413f	-0.035706755
105	0x3df82598	0.121165454
106	0xbdc66084	-0.09686378
107	0xbe2366f5	-0.15957244
108	0x3e59bc14	0.21263152
109	0xbe0cfcce	-0.13768312
110	0xbba92b9b	-0.005162669
111	0xbe003e6d	-0.12523814
112	0xbdfd31c0	-0.12363005
113	0x3dacd8ce	0.0843979
114	0x3db023b9	0.086005636
115	0x3c93a14b	0.018021246
116	0xbe1a420d	-0.15064259
117	0xbd4ae945	-0.04953887
118	0x3dd63a6e	0.10460363
119	0x3d0cc19d	0.03436433
120	0xbe3b4460	-0.18287802
121	0x3dbddfc3	0.09271195
122	0xbd5af9bc	-0.05346082
123	0xbe666644	-0.22499949
124	0xbd4208ee	-0.047371797
125	0x3e1e8369	0.15479816
126	0x3d0a1594	0.033711985
127	0xbe5086cc	-0.20363921
128	0x3d3bf03a	0.045883395
129	0xbd6d1394	-0.05788
130	0x3e085335	0.13312991
131	0xbd80acb0	-0.062829375
132	0xbb1d8df6	-0.0024040914
133	0x3e79c185	0.24390228
134	0xbdb2833d	-0.08716438
135	0xbd40e6a7	-0.047094967
136	0x3d119c75	0.0355496
137	0xbe0b67c9	-0.1361381
138	0xbe02f738	-0.12789619
139	0xbd3be0bf	-0.04586863
140	0xbde220be	-0.11041401
141	0xbdaa3748	-0.08311325
142	0x3e1fa625	0.15590723
143	0x3d525257	0.051348057
144	0xbe41f8a8	-0.18942511
145	0x3d52a3ae	0.05142563
146	0xbdc9e05f	-0.098572485
147	0x3e3ea433	0.18617325
148	0xbe02e26a	-0.12781683
149	0x3ce87d59	0.028380083
150	0x3d36483b	0.044502478
151	0x3b910250	0.0044253245
152	0xbd4b8db5	-0.04969569
153	0xbe2138c8	-0.15744317
154	0x3e265cf3	0.16246395
155	0x3e5ea237	0.21741568
156	0x3d3cf7ee	0.04613488
157	0x3c1dd354	0.009632904
158	0xbdbcf6bb	-0.092267476
159	0x3dfcb230	0.12338674
160	0xbd1cd9f9	-0.038293812
161	0xbe21bf7a	-0.15795699
162	0x3bb67e77	0.005569275
163	0xbde569dc	-0.11201832
164	0xbd211d10	-0.039334357
165	0x3dd702e9	0.10498602
166	0x3e046864	0.12930447
167	0xbe623353	-0.22089891
168	0xbe18b2d1	-0.14911963
169	0x3d443e18	0.04791078
170	0xbc598c6b	-0.013278107
171	0x3d134bf1	0.035961095
172	0xbd9cc9cb	-0.076556765
173	0x3d17dc85	0.03707554
174	0x3de80110	0.11328328
175	0x3e09f83f	0.13473605
176	0x3d8fb609	0.07017142
177	0x3e2984aa	0.16554514
178	0x3de90063	0.11377027
179	0x3e3e3cd5	0.18577893
180	0xbe238a17	-0.15970646
181	0x3e7a9547	0.24471007
182	0xbdef8521	-0.11695314
183	0x3e0c93cf	0.1372826
184	0x3e4ffec0	0.20312023
185	0xbe0dea39	-0.1385888
186	0x3d14e3f0	0.03635019
187	0x3db2e414	0.08734909
188	0xbe498086	-0.19677934
189	0xbe2cfda4	-0.16893631
190	0xbe932625	-0.2874004
191	0x3e0af49d	0.13569875
192	0x3de88b48	0.11354691
193	0x3d627bd9	0.05529389
194	0xbe852d00	-0.26010895
195	0xbe002db2	-0.12517431
196	0xbcc5010b	-0.024048349
197	0xbe365223	-0.1780477
198	0xbd054fe9	-0.03254691
199	0x3e049a78	0.1294955
200	0x3d28ae2e	0.041181736
201	0x3ddd532d	0.1080688
202	0x3deda0be	0.11602925
203	0xbe1c730b	-0.1527826
204	0xbd5e7e38	-0.05431959
205	0x3c1887cd	0.009309721
206	0x3dabebc3	0.08394577
207	0x3cab05df	0.020876823
208	0x3e0a28a0	0.1349206
209	0xbdf803f0	-0.12110126
210	0x3d3e3883	0.046440613
211	0x3e43859c	0.19093937
212	0xbcdde892	-0.027088437
213	0x3d0d76af	0.034537014
214	0x3dbcf617	0.092266254
215	0x3c3375f3	0.010953414
216	0xbd25c46d	-0.04047053
217	0xbe533624	-0.20626122
218	0xbe38a31f	-0.18030976
219	0x3e0792ba	0.13239565
220	0xbe22a15a	-0.15881863
221	0xbcb6d614	-0.022318877
222	0x3e83a5d3	0.2571245
223	0xbe1729f2	-0.14762095
224	0xbe236123	-0.15955023
225	0xbd9b4fa3	-0.07583549
226	0x3dbe05b6	0.09278433
227	0xbe17a3c5	-0.14808567
228	0x3e20f19e	0.1571717
229	0xbdc84677	-0.09779065
230	0xbbd1dd8d	-0.0064045847
231	0x3dd726ba	0.105054334
232	0xbd53871c	-0.051642522
233	0x3d04ecd1	0.03245241
234	0xbe16e1ae	-0.14734527
235	0x3dc5bfd0	0.09655726
236	0xbe335ce8	-0.1751591
237	0x3c84f09c	0.016228013
238	0x3d00a588	0.031407863
239	0xbd3bafd5	-0.045821983
240	0xbe102bf3	-0.14079265
241	0x3e43ce7a	0.19121733
242	0xbe585f81	-0.21130182
243	0x3df264b0	0.11835611
244	0x3db96aca	0.090535715
245	0x3d86d2ea	0.065831974
246	0x3e3733f1	0.17890908
247	0x3c782f0f	0.015147938
248	0x3dcb8442	0.099373356
249	0x3deecb5c	0.116598815
250	0xbe3b6972	-0.18301943
251	0x3e229195	0.15875848
252	0x3d55c38b	0.052188437
253	0x3d3d3bb9	0.046199534
254	0xbe01461b	-0.126244
255	0xbdfead79	-0.12435431

fc2.bias f4 [10]
0	0xbcc3634d	-0.023851061
1	0x3bce9e7c	0.006305514
2	0xbca51694	-0.020152368
3	0xbd48d199	-0.049028013
4	0x3d8a6796	0.06758039
5	0xbd1f8ada	-0.03895078
6	0x3c9adc59	0.018903898
7	0xbdc88317	-0.097906284
8	0x3dc632e7	0.096776776
9	0x3c959dce	0.018263724

exp_avg f4 [16, 1, 5, 5]
0	0x3b579a09	0.0032898209
1	0x3ad74b23	0.0016425591
2	0x3a42df48	0.0007433784
3	0x3a2f9ebe	0.00066993746
4	0x3ac97666	0.0015370368
5	0x3a7b2e90	0.00095818285
6	0xb99e639f	-0.00030210332
7	0xb98ca85f	-0.00026828327
8	0x39ca657e	0.0003860406
9	0x384463ef	4.6823112e-05
10	0x3ab91899	0.001412171
11	0x3ab517b9	0.0013816274
12	0x3a9c01e7	0.0011902422
13	0x3ae56ae7	0.0017503173
14	0x3ab0ded0	0.0013494138
15	0x3b0e3a0e	0.0021702084
16	0x3ac75086	0.0015206493
17	0x3a5d3a27	0.00084391463
18	0x3af8b99b	0.0018976213
19	0x3aacd426	0.0013185784
20	0x3a9a2a65	0.0011761902
21	0x3a2524a2	0.0006299709
22	0x3a57694a	0.00082172884
23	0x3a762873	0.00093901827
24	0xbac27005	-0.001483441
25	0xb894bda5	-7.092514e-05
26	0xba66d280	-0.00088051707
27	0xbb214406	-0.0024607196
28	0xbb133547	-0.0022462176
29	0xbac4ec86	-0.0015024103
30	0x394ff10f	0.0001983086
31	0x3a7ac2ad	0.0009565752
32	0x3b075d81	0.0020655098
33	0x3ac9602c	0.0015363744
34	0xba285c80	-0.0006422475
35	0x3add4def	0.0016884188
36	0x3b362b69	0.002779687
37	0x3b68b9ab	0.0035511057
38	0x3aca0fad	0.0015416049
39	0xbb17b593	-0.0023148998
40	0x3b234bfd	0.0024917119
41	0x3b53e143	0.0032330311
42	0x3b3fe51e	0.0029280852
43	0x3a84c648	0.0010129893
44	0xbac1113f	-0.0014729871
45	0x3b31c440	0.002712503
46	0x3b387ccc	0.0028150557
47	0x3b2f6347	0.0026762055
48	0x3ad7be1b	0.0016459854
49	0xb9dafd25	-0.00041768808
50	0xba66853b	-0.00087936566
51	0xba044cc5	-0.000504684
52	0xba3afa31	-0.00071326183
53	0x3a57c603	0.0008231105
54	0x39b5d1aa	0.00034679222
55	0xba0080b3	-0.000490199
56	0xba29affa	-0.0006473061
57	0xbab96e17	-0.0014147189
58	0xbad09185	-0.0015912509
59	0xba91813c	-0.0011101137
60	0x39d88803	0.00041300067
61	0xbabe4c80	-0.0014518648
62	0xbb43997d	-0.0029846125
63	0xbb269dae	-0.0025423574
64	0xbae44249	-0.0017414774
65	0xba28d21b	-0.00064399996
66	0xbaa5a781	-0.0012638421
67	0xbb07561f	-0.0020650697
68	0xbb1a89bb	-0.002358063
69	0xbb0f00b4	-0.0021820487
70	0xba37c89e	-0.000701079
71	0xba786a43	-0.00094762834
72	0xbad586d8	-0.0016290797
73	0xbaf94392	-0.001901733
74	0xbac66a32	-0.001513785
75	0xbc6ba8d2	-0.014383512
76	0xbc1e57c0	-0.009664476
77	0xbbb49e04	-0.005512001
78	0x38f270f3	0.00011560498
79	0x3b00564b	0.0019582685
80	0xbc0c9cd9	-0.008582317
81	0xbb81ae8c	-0.003957575
82	0xba821ba1	-0.0009926447
83	0xba602cd6	-0.0008551603
84	0xba50ad0a	-0.0007960355
85	0xbb8767cf	-0.004132248
86	0xba0cabde	-0.00053661864
87	0xba994622	-0.0011693875
88	0xbb1ebdc9	-0.0024222007
89	0x3a0eaa56	0.0005442252
90	0xba316fb5	-0.000676866
91	0xb9fbc05e	-0.00048017775
92	0xbaefd1d7	-0.001829679
93	0x3b047e69	0.0020216948
94	0x3bac8f77	0.005266126
95	0xba909741	-0.0011031405
96	0xbb27ba0d	-0.0025593073
97	0xba99194d	-0.0011680514
98	0x3b1debae	0.0024096775
99	0x3b84b637	0.004050042
100	0x3a79a280	0.00095228106
101	0x3a421a67	0.0007404447
102	0x3a84a381	0.0010119529
103	0x3a218efe	0.000616297
104	0x3a1358ad	0.00056208187
105	0x3b01062d	0.001968752
106	0x3b0903bb	0.0020906765
107	0x3ad63572	0.0016342832
108	0x3ad111c7	0.0015950733
109	0x3ab418d3	0.0013740308
110	0x3b1f9252	0.0024348688
111	0x3af9a2f8	0.0019045761
112	0x3b0b4b29	0.0021254516
113	0x3b0e2b23	0.0021693192
114	0x3b0d1cc7	0.0021532045
115	0x3b51e7ce	0.0032029036
116	0x3af38c2d	0.0018581204
117	0x3aae08a6	0.0013277724
118	0x3affb913	0.0019510112
119	0x39fdbfd3	0.0004839884
120	0x3b6a3163	0.0035735003
121	0x3b396523	0.0028289042
122	0x3aee7a80	0.0018194467
123	0x38ade78e	8.292413e-05
124	0xb9f479f0	-0.00046630157
125	0xbb5fe41e	-0.0034163068
126	0xbb70dd86	-0.0036753132
127	0xbb31dd7b	-0.002714007
128	0xb9fc2d2d	-0.00048098844
129	0xb990f765	-0.00027650144
130	0xbb98cceb	-0.0046631
131	0xbb842f49	-0.004033957
132	0xbb218ebb	-0.0024651724
133	0xb9fe2a86	-0.00048478338
134	0x39e49a78	0.00043602637
135	0xbbac89b4	-0.005265439
136	0xbb21d5b9	-0.002469404
137	0xbb03b827	-0.0020098777
138	0xba11df89	-0.00055646204
139	0x3ad28291	0.001606064
140	0xbb49a224	-0.003076681
141	0xba922855	-0.0011150936
142	0x38a6d7ec	7.9557154e-05
143	0x3b08aadb	0.002085379
144	0x3b6c0bc7	0.0036017762
145	0xba46b4d8	-0.00075800484
146	0xba22d41f	-0.0006211418
147	0x39349433	0.00017221346
148	0x39f9dad0	0.0004765601
149	0x3b4ffbbc	0.0031735739
150	0x3b8c2c04	0.004277708
151	0x3b88562b	0.0041606626
152	0x3b36cda3	0.0027893565
153	0x3ac5a862	0.0015080089
154	0x3a5620e2	0.0008168352
155	0x3b8137ef	0.0039434354
156	0x3b92289a	0.0044604065
157	0x3b14405b	0.0022621367
158	0xb9e3c4b6	-0.00043443375
159	0xbab47f94	-0.0013770931
160	0x3b0d76cb	0.0021585699
161	0x3a4b32e8	0.0007751421
162	0x3a0dfba4	0.00054162205
163	0xbac08fab	-0.0014691254
164	0xb90ee37d	-0.00013626921
165	0x3a34343e	0.000687424
166	0xba4f15f4	-0.00078996946
167	0xb9222129	-0.00015461877
168	0x3af6a8bb	0.0018818596
169	0x3ba124a8	0.0049177
170	0x3a86f8db	0.0010297553
171	0x398f3377	0.0002731343
172	0x393f6aae	0.0001825492
173	0x3b54f00e	0.0032491717
174	0x3b231bb2	0.0024888334
175	0x3b5bd686	0.0033544614
176	0x3b8ebf8e	0.004356331
177	0x3b566457	0.0032713616
178	0x3b15a1c2	0.002283201
179	0x396a29f7	0.00022331612
180	0x3b2338a0	0.0024905577
181	0x3b45b46a	0.003016735
182	0x3b40c57a	0.002941458
183	0x3b02b816	0.001994615
184	0xb9e0b10a	-0.00042856514
185	0x3ae23f11	0.0017261227
186	0x3ae20ea1	0.0017246791
187	0x3a30aecc	0.0006739914
188	0xba5d592b	-0.0008443768
189	0xbb107469	-0.0022042042
190	0xba029473	-0.0004981227
191	0xbaeb85e2	-0.0017968977
192	0xbacd93b0	-0.0015684273
193	0xbaf8ccb7	-0.0018981908
194	0xbb0a302a	-0.0021085837
195	0xbad27dc5	-0.0016059211
196	0xbb05ce8b	-0.0020417299
197	0xb9ed1348	-0.00045218528
198	0xb78e58a5	-1.6968997e-05
199	0xb969bffb	-0.0002229213
200	0x3ab9aa02	0.0014165046
201	0xbad25dca	-0.001604968
202	0xbb69413c	-0.0035591861
203	0xbb266839	-0.0025391711
204	0xba9cd074	-0.0011963979
205	0x3a03933d	0.00050191936
206	0xbb56a76f	-0.0032753607
207	0xbb22d251	-0.0024844597
208	0xb84b7167	-4.8504586e-05
209	0xb7073a19	-8.060154e-06
210	0xba550e16	-0.0008127404
211	0xbaf47580	-0.001865074
212	0xba54d0b8	-0.000811826
213	0x3a658322	0.0008755197
214	0x39ae1e76	0.0003321056
215	0xbb29fd22	-0.0025938232
216	0xbb47267a	-0.0030387924
217	0xba9b901d	-0.0011868511
218	0x3a6e5482	0.0009091572
219	0x3afa9a9c	0.0019119564
220	0xbb834e4b	-0.004007136
221	0xbb05323a	-0.0020324127
222	0xba5937ed	-0.00082862267
223	0xbac44c04	-0.0014976268
224	0x3abf0af8	0.0014575412
225	0x392009c2	0.00015262424
226	0xba8260ed	-0.0009947099
227	0xba6589af	-0.0008756173
228	0xb9476073	-0.00019014049
229	0x3a984933	0.0011618495
230	0xba455397	-0.00075274095
231	0x39c478fe	0.0003747418
232	0xb9ddfbdb	-0.00042340052
233	0x3acd930a	0.001568408
234	0x3b3c630b	0.0028745558
235	0x3a39d8d9	0.0007089503
236	0x3a972815	0.0011532331
237	0x3af2911b	0.001850638
238	0x3b56a675	0.0032753025
239	0x3b172ada	0.0023066313
240	0x3af43513	0.001863154
241	0x3b220c8f	0.0024726724
242	0x3b429d88	0.0029695947
243	0x3b846ca7	0.0040412727
244	0x3b0b5c1a	0.0021264614
245	0x3b2ebb7d	0.0026662045
246	0x3b83ce94	0.0040224288
247	0x3b940e5d	0.004518314
248	0x3b62996c	0.003457631
249	0x3b5ba22b	0.0033513408
250	0x3b92cee4	0.0044802297
251	0x3b93135a	0.004488391
252	0x3b593c7e	0.0033147628
253	0x3b02e143	0.0019970692
254	0x3aa3c877	0.0012495656
255	0x3b83a531	0.004017495

exp_avg_sq f4 [16, 1, 5, 5]
0	0x37f3c5ac	2.9059906e-05
1	0x382edb6f	4.1689196e-05
2	0x38a1cc16	7.715092e-05
3	0x39689cd3	0.00022183666
4	0x39a8bec4	0.00032185588
5	0x37d4294e	2.5291603e-05
6	0x3834ae0e	4.3077445e-05
7	0x38e190e6	0.000107558255
8	0x399490a3	0.00028336523
9	0x39b3827f	0.00034238768
10	0x38544385	5.060762e-05
11	0x38a3e8ab	7.8157835e-05
12	0x393a8394	0.00017787359
13	0x39b7af99	0.0003503531
14	0x39a7fa85	0.00032039374
15	0x386b297a	5.6066994e-05
16	0x38eb02bb	0.00011206182
17	0x397aa43a	0.00023903037
18	0x39b85331	0.00035157197
19	0x399d995d	0.00030059638
20	0x388b3fa7	6.639893e-05
21	0x390b2032	0.00013268067
22	0x398bd8d2	0.0002667369
23	0x39adcb29	0.00033148497
24	0x3987f948	0.00025934936
25	0x36b4cef6	5.3885115e-06
26	0x373bf85c	1.1203894e-05
27	0x383cc09b	4.500207e-05
28	0x39014e41	0.0001233155
29	0x393491f6	0.00017220512
30	0x368a412c	4.1203075e-06
31	0x3774f5eb	1.4600791e-05
32	0x38825128	6.2139996e-05
33	0x3912b676	0.00013991617
34	0x393b5ca1	0.00017868217
35	0x37965442	1.7920629e-05
36	0x382d45c2	4.131138e-05
37	0x38964138	7.164705e-05
38	0x390726f1	0.0001288911
39	0x392e637d	0.00016630995
40	0x380c37d5	3.34306e-05
41	0x38541b6d	5.057028e-05
42	0x3888470f	6.498221e-05
43	0x38e66be9	0.000109873545
44	0x3923fa61	0.00015638165
45	0x3851a7ef	4.9985883e-05
46	0x3869a6f9	5.5707034e-05
47	0x388e6a50	6.79089e-05
48	0x38f23b68	0.000115505245
49	0x39247d65	0.00015686972
50	0x38cb2346	9.6863645e-05
51	0x38e7f47e	0.000110604786
52	0x38eef788	0.00011394831
53	0x38c3d72d	9.338404e-05
54	0x3869eea8	5.5773795e-05
55	0x38d914f6	0.000103512706
56	0x39126ef9	0.00013964986
57	0x39199733	0.00014647543
58	0x38e005d5	0.00010682239
59	0x386865b9	5.5407847e-05
60	0x38c456f2	9.362203e-05
61	0x3903854e	0.00012542793
62	0x39283d0b	0.00016044469
63	0x3915c387	0.00014282587
64	0x38b3100e	8.5383756e-05
65	0x384e34af	4.9163293e-05
66	0x388d7cf0	6.746675e-05
67	0x3920d35e	0.0001533753
68	0x393d5f37	0.00018059915
69	0x38ff8b7e	0.0001218533
70	0x37fb7f6b	2.9980865e-05
71	0x3862e3c9	5.409474e-05
72	0x392295e1	0.00015505358
73	0x394af34d	0.00019354858
74	0x3923bf39	0.00015616127
75	0x39d84050	0.00041246647
76	0x399dcbdb	0.00030097258
77	0x390af71e	0.00013252764
78	0x388a9b70	6.609305e-05
79	0x390c0655	0.000133538
80	0x395d923a	0.00021130676
81	0x38807684	6.125591e-05
82	0x372db040	1.035264e-05
83	0x3817f31c	3.622762e-05
84	0x3942b116	0.00018567251
85	0x38605da2	5.3492964e-05
86	0x36ba57a0	5.553433e-06
87	0x376148c9	1.3427992e-05
88	0x38df7850	0.000106558786
89	0x39b8cd25	0.0003524806
90	0x37095f2b	8.187994e-06
91	0x36e75082	6.893709e-06
92	0x38908f1d	6.893112e-05
93	0x399d1a2c	0.00029964873
94	0x3a0e3b82	0.00054257375
95	0x37b89ce8	2.2007574e-05
96	0x3892a094	6.9917325e-05
97	0x39830ee7	0.0002499737
98	0x39f86f3d	0.00047385125
99	0x3a2776dd	0.00063882564
100	0x38c5fb6a	9.4405215e-05
101	0x38bd9040	9.039091e-05
102	0x389f9570	7.609546e-05
103	0x38afd8cf	8.385034e-05
104	0x38d51bde	0.00010161822
105	0x38d4a8ec	0.00010140412
106	0x38dbde17	0.00010484101
107	0x38d141fb	9.9781864e-05
108	0x38fca991	0.000120478806
109	0x38fc2208	0.00012022635
110	0x38cf3e7e	9.882169e-05
111	0x38fa4b97	0.00011935009
112	0x3903ddad	0.00012575714
113	0x38e6d1d9	0.00011006342
114	0x38b49327	8.610478e-05
115	0x3908ae6b	0.00013034946
116	0x391f984f	0.00015220161
117	0x38f2a361	0.00011569891
118	0x38903e6b	6.878081e-05
119	0x384efe13	4.9350852e-05
120	0x3926d2af	0.0001590948
121	0x393abb7e	0.00017808189
122	0x3907021d	0.0001287539
123	0x387c8b6d	6.0211332e-05
124	0x382fbf79	4.1901574e-05
125	0x39187863	0.00014540697
126	0x39296453	0.0001615447
127	0x393c642f	0.00017966398
128	0x39413d7e	0.00018428822
129	0x39334e98	0.00017100049
130	0x3964e13c	0.00021827681
131	0x395dec50	0.00021164236
132	0x3950c05d	0.00019908087
133	0x3954f493	0.00020309007
134	0x394591c7	0.0001884169
135	0x3941b3cc	0.00018472894
136	0x390b104b	0.00013262143
137	0x390258d9	0.00012430864
138	0x390f4503	0.00013663252
139	0x391e6256	0.00015104687
140	0x38ac6ce0	8.221879e-05
141	0x384f50df	4.9427963e-05
142	0x382d2a3f	4.128576e-05
143	0x388edab5	6.811825e-05
144	0x3905d432	0.00012762917
145	0x380be0b8	3.3349468e-05
146	0x377f5e09	1.5221079e-05
147	0x37885863	1.6253622e-05
148	0x38775935	5.897247e-05
149	0x38e2b483	0.00010810143
150	0x3a5166e0	0.0007988047
151	0x3a45875a	0.00075351226
152	0x3a0cad5b	0.0005366408
153	0x39b9a424	0.00035408244
154	0x39e2085a	0.00043112302
155	0x3a3e75bb	0.0007265468
156	0x39f0ea7a	0.00045951066
157	0x39221c68	0.00015460106
158	0x38b7e9ed	8.769692e-05
159	0x39a3fe9f	0.0003127949
160	0x3a1f7023	0.00060820783
161	0x393de612	0.00018110152
162	0x37bf522e	2.2807242e-05
163	0x38516bc6	4.9929855e-05
164	0x39e44f30	0.00043546548
165	0x39f69286	0.00047029945
166	0x390a438b	0.00013185867
167	0x38246c7b	3.9201677e-05
168	0x3962abc5	0.00021617029
169	0x3a639f16	0.00086830684
170	0x39fa9aab	0.00047798952
171	0x398f2ee0	0.0002731001
172	0x39915bc5	0.0002772493
173	0x3a465dae	0.000756706
174	0x3aa431aa	0.0012527008
175	0x3888ba81	6.5197244e-05
176	0x38b52bc4	8.6389045e-05
177	0x38c01f2b	9.161079e-05
178	0x384c7e74	4.875516e-05
179	0x373452ea	1.0748141e-05
180	0x3858c469	5.1681334e-05
181	0x389b6ee7	7.411633e-05
182	0x38d3c19a	0.00010097325
183	0x388ddabf	6.7641486e-05
184	0x3816ff9b	3.6000838e-05
185	0x385f2691	5.320326e-05
186	0x38a46172	7.83828e-05
187	0x38dcab17	0.000105222854
188	0x38d6f59a	0.00010250062
189	0x38cba607	9.710719e-05
190	0x388ae74b	6.6234345e-05
191	0x38e96eef	0.00011130969
192	0x391128fc	0.00013843545
193	0x39029a8c	0.0001245534
194	0x38df9b42	0.00010662388
195	0x38c628d4	9.4489806e-05
196	0x390489c9	0.0001263983
197	0x390cad56	0.00013416013
198	0x38f6296b	0.00011737909
199	0x38e28ae4	0.0001080239
200	0x3a19b3f8	0.0005863304
201	0x3a2e132d	0.00066404307
202	0x3a1bb721	0.0005940069
203	0x39a2c9c4	0.00031049375
204	0x394fe0d7	0.00019824818
205	0x39b6286a	0.00034743856
206	0x39cfd6bc	0.00039642106
207	0x39982450	0.00029018754
208	0x38f9abb2	0.00011905226
209	0x3915c5f1	0.00014283486
210	0x39889dc1	0.00026057477
211	0x398f298b	0.00027306037
212	0x397b3d86	0.00023960145
213	0x3965ead2	0.00021926619
214	0x39c05345	0.00036683134
215	0x39e38ed6	0.00043403235
216	0x39df3fab	0.0004258131
217	0x39dedcbd	0.00042507602
218	0x3a192918	0.000584261
219	0x3a57454c	0.0008211925
220	0x3a23b8ab	0.0006245474
221	0x3a2ecb7b	0.0006667894
222	0x3a34c48e	0.0006895744
223	0x3a6d6abe	0.00090567383
224	0x3a7eab4c	0.0009714856
225	0x388f4d88	6.833213e-05
226	0x38184c29	3.6310554e-05
227	0x385980bf	5.1856736e-05
228	0x38b40269	8.583518e-05
229	0x38b70838	8.727651e-05
230	0x389535f6	7.114925e-05
231	0x384d6b2b	4.8975617e-05
232	0x38abd4bb	8.1935395e-05
233	0x38d3d372	0.00010100649
234	0x38a82bc9	8.01902e-05
235	0x38eb2c80	0.00011213962
236	0x38c25d9b	9.268076e-05
237	0x38e771e2	0.00011036151
238	0x38cff777	9.916623e-05
239	0x389f81b5	7.6058706e-05
240	0x39327533	0.00017019063
241	0x391c6c35	0.0001491763
242	0x38ffa7e1	0.000121906174
243	0x38f4f82d	0.00011681053
244	0x38ed50b0	0.0001131607
245	0x39437b47	0.00018642574
246	0x392c7663	0.00016447301
247	0x39223506	0.00015469277
248	0x3924abba	0.00015704232
249	0x3926541a	0.00015862324
250	0x38ccf8d0	9.773823e-05
251	0x390afb5a	0.00013254341
252	0x390a54a6	0.0001319224
253	0x3903fe93	0.0001258797
254	0x38de1b7b	0.000105909035
255	0x38f8745b	0.000118472344

exp_avg f4 [16]
0	0x3a8a73d5	0.0010563085
1	0xba3c6a24	-0.0007187447
2	0xbb956acb	-0.00455985
3	0xbd249868	-0.04018441
4	0x3b920912	0.0044566477
5	0xbb8393a3	-0.0040154024
6	0x3a9ab150	0.0011802111
7	0x39e34dfa	0.0004335491
8	0x3b9ce42e	0.0047879433
9	0x3bc65067	0.006052065
10	0x3a91a291	0.0011111071
11	0x3a18bf5e	0.0005826856
12	0x3b917e09	0.0044400734
13	0x39f305b7	0.0004635283
14	0x3a82c8d8	0.0009978069
15	0x3bf230ab	0.0073910556

exp_avg_sq f4 [16]
0	0x3a076be9	0.0005165921
1	0x398e653a	0.0002715977
2	0x39ad41ee	0.00033046253
3	0x3b4a3223	0.0030852638
4	0x39875ea6	0.00025819725
5	0x3a0fdd6d	0.0005488012
6	0x3b5c4b3b	0.0033614177
7	0x397ad2ce	0.00023920389
8	0x3b2dd498	0.002652442
9	0x39f7b3aa	0.0004724537
10	0x39876e3e	0.00025831343
11	0x3a233f1b	0.000622736
12	0x3988a997	0.00026066296
13	0x399aac7b	0.00029501677
14	0x39ebf8c6	0.00045008044
15	0x3a42e7ee	0.0007435073
