20250917/iris_course/models/best.pt (torch, 12330 bytes, 6 tensors)

net.0.weight f4 [64, 4]
00000000: 6a2a 97be 5174 23be 581d aebd ce89 0e3f
00000010: 934f af3e 1bde 49bd 3200 bebe eecf cf3e
00000020: 2f9a 223e 316a 003d 8373 5abe ea0f 003f
00000030: ae82 d43e e53e 40be 15be d0be ecae 973e
00000040: 7e1c dbbe dafb 913e fb6d 523e 4ab2 e53e
00000050: 0c3b c3be 64fa 8ebe 6412 f8be 5f6c 983e
00000060: cb37 7c3e 9202 eabe 7577 0d3f ec9d 5c3e
00000070: 9c7f 0cbe ce49 4d3e 818e a0bd f7dc 8c3d
00000080: c6c5 94be f855 3d3e e091 703e 8037 e13b
00000090: e4c2 c1be fd42 13bd 9edc 443e c370 d53d
000000a0: dd02 e03e 057d df3e 2111 81bd de6b 013f
000000b0: 7591 70be 7e35 113f e969 8cbe 296f febd
000000c0: bfae 4ebe df36 ccbe cb9a 5e3e 3e41 a23d
000000d0: 18d4 733e a654 e9bb 3084 5a3e 07ad 3f3d
000000e0: a9c1 8abd 32fe d03e fb41 9a3e e472 e03d
000000f0: e8d2 da3d 2b2a 9ebe 180f c1be 954e 4d3e
00000100: 4be5 05be 9739 ab3e e04e 7b3c 8245 e2be
00000110: ca51 1d3e c034 05bf 063a eb3e d69d cebe
00000120: dea4 99be 63b3 afbe 1b76 08bf 9fb9 2cbe
00000130: 1f5b adbe cf81 88be 9f62 e7be 0f73 b33d
00000140: 2976 543e 77a4 84be 13fb c23d edf9 953d
00000150: 1e54 56be 1e21 003f 3355 7bbe aad5 ffbe
00000160: 6351 09bf b20c 623e bc63 23be 37db b83e
00000170: 4f34 b33d 1a40 843e 16ec 923e 2a39 6b3e
00000180: 5b81 cfbd 5dde 9c3d 140c 2d3e 2cb8 563e
00000190: 3364 543e 41ea 34be 7ac6 813e b2ad a1bd
000001a0: 02d7 cf3e 8e5a 8bbe 0ffd d2be d9d4 a43e
000001b0: 33e5 54be 5b4c c83e 22c1 efbe 7931 233c
000001c0: 91fc b3be 9175 103e 2a2a bcbe baac 4fbe
000001d0: 2139 31be b783 e83e f215 82be 5401 953e
000001e0: d5e4 833c e3ed ca3e ef29 efbd b17e ea3e
000001f0: a488 e8be ac6c 83be 0ac6 d3be 5768 8bbd
00000200: ee27 d93e a9ba b9be fc62 f93a 351d a33e
00000210: 6a93 ba3e ddef fdbe 7773 02bd 80bd 01bf
00000220: ea94 11bf df57 a73e 063e 27be ff73 b23d
00000230: c3c2 fdbd 4af5 bb3e b2e6 f3be 35f8 11be
00000240: d0b1 15be 8b06 393e 5072 063f 87b5 9f3e
00000250: 3ab6 99bd d815 6c3d 69c4 4a3e a931 0a3f
00000260: c486 153e 2a5a 62be ca01 d13e 38cb 08be
00000270: 9596 3b3e 592d 823e 1668 9fbd 3e41 963e
00000280: 06cb d4be 0180 a03d 9e5d d73e 82ab fbbe
00000290: 2d2a f23e 5cfd c03c d887 6d3e 979c 9dbc
000002a0: 122f 7d3e 916f 50be e73d 35be 8da7 f6be
000002b0: a834 f73e 90b1 27bd 8945 c5be edef be3e
000002c0: e0e4 d2be 5493 82be 5eda 1e3e 3517 d5bd
000002d0: 00a7 5b3e 96b2 003e 91c6 e73e 0460 303d
000002e0: 333f c4be 2559 b93d fc9f ee3e 6b9d 413d
000002f0: 2d11 c63e 25a7 87be 797c 0b3e 3633 263d
00000300: 2a0b b7be 0567 b33e a739 debe 302c 2c3e
00000310: 15e6 1a3e d248 c5be 5ece 6a3e 1b7a bc3c
00000320: d81d af3e 6b02 e6be addc 8bbe dc11 12bd
00000330: 004e 883e 54f0 5cbe c58b 093f b8cc 133e
00000340: 4c39 463e 4ba3 a03e 9487 adbe 3d0f b1be
00000350: 5fd7 96be ba51 663e e16f 15bf 84c9 adbe
00000360: b446 72be c0a6 a13d 205b 9d3e 1002 b3bd
00000370: 146e 8ebd 3611 50be b95b 55be bcb4 0ebf
00000380: 9f4f cebd e810 6ebe 3547 c03d f9db 83be
00000390: c3e8 9abe 3b8f ba3e 4c4e 0ebf d34d 9b3e
000003a0: 05de 073f 2a76 6d3e 295c cd3d 1449 c63e
000003b0: 3b5d 413d d5d3 60be 47f6 043f e37e d3bd
000003c0: 3c21 7dbe 7a80 b53e 7069 c63e fb8e a83e
000003d0: 7bb9 08be d0fa 813d ff94 0e3f 76bc 083e
000003e0: d24e f83e a094 edbe ee4c 80be b713 9abe
000003f0: 8ead 8dbd cda0 b03d 0855 77be db56 c4bd
-0.29524547 -0.1596234 -0.085016906 0.55679023 0.34240398 -0.049284082 -0.37109524 0.40588325
0.15879129 0.031351272 -0.21333127 0.5002428 0.4150595 -0.18773992 -0.4077002 0.29625642
-0.42795175 0.2851246 0.20549767 0.44862586 -0.38130987 -0.27925408 -0.4845153 0.2977018
0.24630658 -0.45705086 0.552604 0.21544617 -0.13720554 0.20047686 -0.078396805 0.06878083
-0.2905714 0.18489826 0.23493147 0.006873071 -0.37844002 -0.035952557 0.19224784 0.10421898
0.43752185 0.4365007 -0.06302095 0.5055522 -0.23492987 0.5672225 -0.27424553 -0.12423546
-0.20183848 -0.39885613 0.21738736 0.079226 0.23811376 -0.0071206866 0.21339488 0.04679587
-0.06775219 0.40818936 0.30128464 0.10959414 0.106847584 -0.30891547 -0.37706828 0.20049508
-0.1307575 0.33442375 0.0153386295 -0.44193655 0.15363231 -0.52033615 0.45942706 -0.40354794
-0.30008596 -0.3431655 -0.53305215 -0.16867684 -0.33858582 -0.26661536 -0.4519243 0.0876218
0.207482 -0.25906727 0.09520545 0.0732306 -0.20930526 0.5005053 -0.2454422 -0.499677
-0.5363981 0.22075155 -0.15956014 0.36104748 0.087502114 0.25830156 0.28695744 0.22971025
-0.101320945 0.076596 0.16899139 0.20968693 0.20741348 -0.17667486 0.25346738 -0.07894458
0.40593725 -0.27217525 -0.41208693 0.3219364 -0.20790558 0.39120755 -0.46827036 0.009960526
-0.3515363 0.14107348 -0.3675092 -0.20280734 -0.17306949 0.4541299 -0.25407368 0.29102576
0.016100327 0.39634618 -0.1167792 0.45799783 -0.4541675 -0.25668848 -0.4136203 -0.068070106
0.42413276 -0.36275223 0.0019026692 0.3185822 0.36440593 -0.49597064 -0.031848397 -0.5067978
-0.5686785 0.32684228 -0.16332254 0.08713531 -0.123906635 0.36710578 -0.47636944 -0.1425484
-0.14618611 0.18068902 0.5251818 0.31193182 -0.0750546 0.05763802 0.19801487 0.53982025
0.1460219 -0.22104707 0.40821677 -0.13358772 0.18319161 0.25425223 -0.07783525 0.2934665
-0.41561145 0.07836915 0.42063612 -0.49154288 0.47297803 0.023558311 0.23196352 -0.019239707
0.24724987 -0.20355059 -0.17699395 -0.48174706 0.4828236 -0.04094082 -0.38529614 0.37292424
-0.41190243 -0.25503027 0.15512988 -0.10404817 0.21450424 0.12568125 0.45268682 0.043060318
-0.38329467 0.09050206 0.46606433 0.047269266 0.3868498 -0.2649471 0.13621701 0.040576182
-0.35750705 0.35039535 -0.4340336 0.16813731 0.15126832 -0.3853212 0.22930285 0.023007443
0.34202456 -0.4492372 -0.273168 -0.035661563 0.2662201 -0.21576053 0.53728896 0.14433563
0.19357795 0.31374583 -0.338925 -0.34581938 -0.2946119 0.22492114 -0.5837384 -0.33942807
-0.23659784 0.07893133 0.30733585 -0.08740628 -0.069545895 -0.20319065 -0.2083577 -0.5574453
-0.1007378 -0.23248637 0.09388582 -0.25753763 -0.30255708 0.364374 -0.5558822 0.30332813
0.5307315 0.23189607 0.10027344 0.3872763 0.047208052 -0.21955808 0.5193829 -0.10326936
-0.24719709 0.35449582 0.38752317 0.32921585 -0.13352005 0.06346667 0.556961 0.13353142
0.48497635 -0.46402454 -0.25058693 -0.30093166 -0.069178686 0.0862442 -0.2415353 -0.09586879

net.0.bias f4 [64]
00000000: 532a 9d3e f0a0 4e3d 2fab ee3d aca3 733e
00000010: fe06 ce3e 85d3 123e 6582 d83d de66 a43d
00000020: 62ff d6be b5c9 b5be 65b9 7dbe 6491 cd3e
00000030: 6b9b da3d 33da e23e 6670 2d3d 10c4 a53e
00000040: e86c e03d 8745 883e 77a5 b7be b796 ee3e
00000050: 478c f33e c201 0e3f 936e c13e 77ac 97be
00000060: a07f db3d 80b6 f13d 8186 dcbe 2e0f a43e
00000070: 6617 0c3f 62b6 ddbe 649b 81bd f2fa c43e
00000080: 7ce0 9cbe 78e5 c8be 6d98 a63d 2163 e3be
00000090: b801 58be 39c7 bfbd 6b05 c73e ae70 313e
000000a0: f707 b03e 228e 633e 4308 b2be 56b0 943d
000000b0: e8ee 4c3d 2842 c5be 6dcd 34be b584 e53e
000000c0: 5ff3 5e3c fa57 4c3e f0dc 233d 68fe db3e
000000d0: 2b20 9ebe 1202 bf3d 24f0 7fbe de42 7cbe
000000e0: f34e e8be 02eb bd3d d9ab ea3d 1a78 a53e
000000f0: d27b 91bb ec4c f63d 4446 dd3e d639 c83e
0.30696353 0.05044645 0.116537444 0.23792905 0.4023971 0.14338501 0.10571746 0.08027433
-0.41991717 -0.35505453 -0.24777754 0.40149987 0.10674175 0.44307098 0.04234352 0.32376146
0.10958272 0.26615545 -0.35868427 0.4659936 0.4756796 0.5547143 0.37779674 -0.29623768
0.10717702 0.11802387 -0.43071368 0.3204283 0.54723203 -0.4330321 -0.063284665 0.38472706
-0.30640018 -0.3923757 0.08134542 -0.44411567 -0.21094406 -0.093641706 0.3887132 0.1732814
0.34381077 0.22222188 -0.34771928 0.07260196 0.050032526 -0.38527036 -0.17656489 0.4482781
0.013607829 0.19955435 0.040005624 0.42967534 -0.30883917 0.09326567 -0.2499395 -0.24634883
-0.45372733 0.0927334 0.114585586 0.32318193 -0.0044398094 0.120263904 0.4321767 0.39106625

net.3.weight f4 [32, 64]
00000000: 2cf5 d93b 9d86 973c 5ae3 33bd 3f93 413d
00000010: 46a6 dd3d f2e3 97bc 960f 2cbe 7afd 9e3d
00000020: b409 b1bd a65b d7bd e213 413d f3bd 153e
00000030: 8ab8 b7bd 9bc2 95bc 0dd8 393d 5d05 c2bd
00000040: f7cf 4d3d 86b7 333d cab5 0b3d 40a5 77bd
00000050: ba3c 35be 3f08 9e3c b376 883d 5083 8fbc
00000060: 1357 3f3c f95d 0c3c 5f1b b13c 2328 fe3d
00000070: d8f1 383e a199 853d 0b1c 80bd a0b3 ef3d
00000080: 797a aebc 482a 003e e06a 273e 9bfe 80bc
00000090: 9142 c6bd a13c acbd ea5a 643d 8d68 8cbd
000000a0: dc8c c93d 8d4a d8bd 103b dcba ce29 653b
000000b0: 46d2 abbc f3d7 e9bd 918a d0bd a14c 143d
000000c0: 53d7 163e a88d c9bd b74c ce3b 5c8f 25be
000000d0: 33b2 993d 9103 333d ca68 a63d 6bf2 b93d
000000e0: 216a 423d 71e9 313e 555f 2b3d 9312 d43c
000000f0: 29ae a7bd 6042 1ebe 6dc3 5fbd 9b33 3a3e
00000100: d754 d33d 57cc 1c3d 7b2a 583d af02 713c
00000110: f18a 903d 931c 1d3e 9f05 d13d 1c73 09be
00000120: 0ef8 f53d 523c c5bd 6f96 b4bd a291 f4bc
00000130: be12 313e 07f2 be3d db3c 9a3d ebf9 ec3d
00000140: 6341 51bd 43de 0b3e 75bd cebd b553 c73d
00000150: 1667 f7bc 7aa2 29bd 8e0c 063e 0d17 89bd
00000160: 0048 e1bc 5d89 71bd c311 4fbb deec ab3c
00000170: c37e 5b3d d75f 01be 664f 753d d85a 2b3e
00000180: 203f d5bd adb2 45bd 583e 183c 3e4a ccbc
00000190: 5ece 28be 580c 3ebe 37d4 353e bb03 03be
000001a0: 89e6 b13d 70f7 b63d 683d b8bd b9aa e3bc
000001b0: f58c 39bd b2ae 3abd 93d6 0cbe d7c5 25bd
000001c0: f346 8bbd f784 fd3c c938 bb3d 69b9 423d
000001d0: f798 ecbd 6618 13be 90be 203d 60f3 02be
000001e0: 19ba 41bd 6e82 c4bd 39f7 4fbd 428d 133e
000001f0: 4018 74bd 6c8b ae3c 6439 2a3e 320c 18bd
00000200: df25 cc3d b90d 5f3d 746e 98bd 8ac1 a1bc
00000210: ff3e 79bc 8d61 cd3d c2a7 b23d 5061 953d
00000220: 0077 2ebb b722 29bd 2d9b cabd acf5 52bd
00000230: 3a5c 70bc da13 883c 6cf7 803d ad16 103e
00000240: fd48 03be 5a73 403d c755 1dbc d51b a43d
00000250: 59b9 9e3c 7425 423d 82a8 243d ee9c b2bd
00000260: 89d1 af3d 2f6e ae3d 9739 6f3d 2e4e c43c
00000270: 99b7 4ebc 72c7 2bbc a86a 7ebd 95d8 963d
00000280: 2bef 9d3d 2a81 973b de37 be3b f3e5 85bd
00000290: 4d2d 12be 1e06 8bbd c824 443e b519 d03b
000002a0: b7ee 863d d6ce dd3c 9916 3c3d 9e4e e93d
000002b0: d5b2 2c3d 001b 11be 0240 ecbd 958c b73d
000002c0: ea0a 0ebe e380 4cbb 4ead 343e 8e4c 7a3d
000002d0: c68d 18be 9ca2 7abd ec18 ffbd 2200 1ebe
000002e0: 76a2 2a3d c3af 393d 808f 77bd 1e7a 293e
000002f0: 7aa7 0ebe 82a0 59bd 10b2 c93d 55ac 913d
00000300: 2fa6 42bd fa0e af3d 81a9 bfbd acdf 9fbd
00000310: 676e b7bd 2bbe 06bd b989 4e3d a1a9 fcbd
00000320: c247 913d d90e c6bd 50eb 8b3d 8258 aabd
00000330: 51ae e3bd 96a4 04be 9f41 b3bc 0e14 f3bc
00000340: f614 c4bd db07 713c c613 8bbb b546 bebd
00000350: 3247 dd3c 8d02 013c 468c edbd 5cc9 b6bd
00000360: 7138 e6bd 2e85 553d e69f 07be 071b 933d
00000370: fda0 883d a33b d1bc 24b3 c2bd 9c8c 9cbd
00000380: 386d f2bd f61f fe3c f0e1 dabd ae4e 343d
00000390: c8c2 30bd ac28 ad3d 81a9 b7bd 09e2 8abd
000003a0: f528 ab3d 7326 febb a0e9 39bd d099 febd
000003b0: 62b3 a63d adf6 08bd d107 a9bc 031f cabd
000003c0: cfd1 c13b 0e87 ecbc e91b 87bd d34f d63d
000003d0: 51a0 c9bc d93a 183d 809f f23b 9d4a 333b
000003e0: b8c7 f5bd 6638 f93d 1c75 993b 189a 9c3d
000003f0: 4085 b73d c7b1 123d 200c 06be 3d04 1bbc
0.006651541 0.018496806 -0.04391799 0.047259565 0.1082273 -0.01854131 -0.1680282 0.077631906
-0.08644429 -0.105155274 0.047138102 0.14623241 -0.08970745 -0.018281272 0.045372058 -0.09473679
0.05024716 0.043876193 0.034108914 -0.06046033 -0.17698947 0.019291041 0.06663265 -0.01751867
0.011678475 0.008567327 0.021619497 0.12409999 0.18061006 0.06523443 -0.06255349 0.117041826
-0.021298634 0.12516129 0.16349363 -0.015746405 -0.09680665 -0.084100015 0.055750765 -0.06855879
0.0984132 -0.105610944 -0.001680227 0.0034967544 -0.02097429 -0.11418142 -0.101826794 0.03620589
0.14730577 -0.09841472 0.006295766 -0.16167969 0.07504692 0.043704573 0.08125456 0.09079441
0.047464494 0.17374207 0.041838963 0.025887763 -0.08187515 -0.15455008 -0.054629732 0.18183748
0.10318916 0.03828081 0.052774888 0.0147101125 0.07057751 0.15342931 0.1020615 -0.13422817
0.12010203 -0.09630646 -0.088177554 -0.0298546 0.17292306 0.09323507 0.075311385 0.115711056
-0.05108775 0.13659005 -0.1009473 0.09732763 -0.030200522 -0.041414715 0.13090727 -0.0669385
-0.027500153 -0.05896889 -0.003159628 0.02098697 0.053587686 -0.12634216 0.059890173 0.16733873
-0.10412431 -0.0482661 0.009292208 -0.024937745 -0.16484973 -0.18559396 0.17756735 -0.12794392
0.08686549 0.08933914 -0.08996087 -0.027791368 -0.045300443 -0.04557676 -0.13753729 -0.040471878
-0.06800642 0.030947192 0.0914169 0.047540102 -0.11552613 -0.14364776 0.039244235 -0.12788153
-0.047296617 -0.0959519 -0.05077288 0.14409354 -0.05959344 0.021306716 0.16623455 -0.037121005
0.09968161 0.054456446 -0.07442942 -0.019745607 -0.015212773 0.10028372 0.087234035 0.072939515
-0.0026621222 -0.041292872 -0.09892879 -0.051503822 -0.014670426 0.016611028 0.06297192 0.1407115
-0.12820812 0.046985008 -0.00960297 0.08013121 0.01937549 0.047399 0.040199764 -0.08721338
0.085848875 0.085171096 0.05840453 0.02396306 -0.012617015 -0.010484563 -0.062113434 0.073655285
0.07711633 0.004623552 0.0058049997 -0.06538 -0.14275093 -0.06788276 0.19154656 0.0063507208
0.065885 0.027076166 0.04591999 0.11391948 0.042162735 -0.14170456 -0.11535646 0.08962361
-0.13871351 -0.0031204752 0.17644235 0.061108164 -0.14897832 -0.061190233 -0.12455925 -0.15429738
0.04165884 0.045333635 -0.060439587 0.1655049 -0.13931075 -0.053131588 0.09848416 0.07112948
-0.047521766 0.085477784 -0.09358502 -0.07806334 -0.089566045 -0.032896202 0.05042431 -0.12337042
0.07093765 -0.09670801 0.06831992 -0.08317663 -0.111172326 -0.1295341 -0.021881877 -0.029672649
-0.095743105 0.014711346 -0.0042443005 -0.0929083 0.027011488 0.007874143 -0.11599021 -0.08925125
-0.11241234 0.052128963 -0.1324459 0.071828894 0.06671331 -0.025541132 -0.095068246 -0.076440066
-0.11837238 0.0310211 -0.106876254 0.044020347 -0.043154508 0.08455023 -0.08967877 -0.06781394
0.08357421 -0.0077560483 -0.045388818 -0.12431681 0.08139683 -0.033438373 -0.02063361 -0.09869196
0.0059149037 -0.028872993 -0.0659712 0.10464444 -0.024612578 0.037165496 0.007404268 0.0027357705
-0.12000984 0.1216896 0.00468315 0.076465786 0.08960962 0.035814073 -0.13090563 -0.00946146

net.3.bias f4 [32]
00000000: a661 0fbd 96d4 e5bc 7530 c4bc 1b1a 8f3c
00000010: 8508 353e 3bf8 b03d b1f2 373b 738b 04be
00000020: e3c7 363d cd86 223d 7d5a e0bb 5018 2f3e
00000030: 0a8a ca3b 856d f53c c580 bc3c ba31 36bd
00000040: 459b 3a3e ee0d 77bd a19f c6bd 047c 0a3d
00000050: 246f 3e3d fb95 abbc e5b5 573d c5f5 b13d
00000060: 482a 93bd 84be 0ebe 6f8c b73d 1da1 8cbd
00000070: 3903 32bc e798 343d efb1 e5bc 17a4 d5bd
-0.035005234 -0.02805547 -0.023948887 0.017468503 0.17679031 0.08641096 0.002806824 -0.1294382
0.04462422 0.039679337 -0.0068467245 0.17099118 0.0061810063 0.02995945 0.02301062 -0.044481017
0.18223293 -0.06031602 -0.096984155 0.033809677 0.04649271 -0.02094554 0.052663703 0.08689455
-0.07185799 -0.13939863 0.089623325 -0.068666674 -0.010865026 0.04409113 -0.028038947 -0.10431688

net.6.weight f4 [3, 32]
00000000: 8833 6d3e 96a4 42be 0d3a a1bd f491 d4bc
00000010: cbc0 30be 0d35 4bbe feed 583e 40b3 d63d
00000020: 1bf2 063e 1836 6f3d e1ed 68bd 6332 f13c
00000030: c7bb 24bd 6185 3ebe 7241 34bd 2dc0 9c3d
00000040: 0092 183e 45f2 2f3e 3390 f6bd 52ff d2bd
00000050: 1ef2 f13d 1580 4d3e e0e3 d0bd 8249 5ebe
00000060: e37a 753e b4e1 eb3d 0da6 09be 3534 74bc
00000070: 4698 ffbd 9454 53be 243b aebd 1a3a 61bd
00000080: 8653 c9bd 402a 703e 3420 eb3d c507 d3bd
00000090: 26f6 663e b82c 05bd 07b4 383e 016d 9c3d
000000a0: 17a2 94bd d9bc 2ebe a613 0bbe bd43 2a3d
000000b0: d2f3 4dbd f169 973d 94f6 733e 92e2 a2bd
000000c0: 9841 bbbc b587 f7bd 02b9 32be 87a9 06be
000000d0: 3cc5 803c b463 2bbe e103 2b3c b3d2 bebc
000000e0: 44d5 18bd 5d44 c03d 4543 e13d eeee b4bd
000000f0: 0f22 d03c b67f babc 081f 3bbd 59b3 15be
00000100: 5aaf 00bc db3a dabd e8d7 04bd 6dad d4bd
00000110: 9f0e c7bd a8ca 92bc 5d5b 83bd cda1 a23d
00000120: 2b40 2abe e750 f73d a050 05be dd1c 5fbe
00000130: fe82 7b3e c489 8e3d 679d a7bd f78f 57bd
00000140: 2d78 e2bd 3a63 5bbe 7bad 123e 3a1d f23d
00000150: 5229 09be 4d19 2cbe cb09 843d 4ea7 133e
00000160: cf69 38be be34 de3d 4034 5bbd 7bcb 743e
00000170: dc9e 5a3e 4b5d cd3d 3426 f43c 4b10 223d
0.23164189 -0.19008097 -0.078724004 -0.025948502 -0.17261045 -0.19844456 0.21184537 0.10483408
0.13178293 0.058401197 -0.056867484 0.029442972 -0.04021814 -0.18605568 -0.044007726 0.07653842
0.14899445 0.17182262 -0.120392226 -0.10302605 0.11813758 0.2006839 -0.10199714 -0.21707729
0.23972659 0.11517659 -0.1344225 -0.014905025 -0.12480216 -0.20637733 -0.08507374 -0.05498705
-0.09830384 0.23453617 0.11480752 -0.10304216 0.22554836 -0.03251335 0.18037425 0.07637978
-0.07257479 -0.17064227 -0.13581714 0.041568507 -0.050281353 0.073932536 0.23824531 -0.07953371
-0.022858426 -0.12086431 -0.17453387 -0.13150607 0.015719049 -0.16737252 0.0104379365 -0.023293829
-0.03731276 0.09388039 0.10999159 -0.08834635 0.025406865 -0.022765975 -0.04568389 -0.14619197
-0.007854307 -0.10655757 -0.032432467 -0.10384641 -0.097195856 -0.0179189 -0.064139105 0.07941017
-0.1662604 0.12075978 -0.13019037 -0.21788354 0.24561688 0.069598705 -0.08184319 -0.05262753
-0.11058078 -0.2142457 0.1432399 0.11821981 -0.13394669 -0.16806526 0.0644718 0.1441929
-0.18009113 0.108499035 -0.053516626 0.23905747 0.21349663 0.1002756 0.029803373 0.03956632

net.6.bias f4 [3]
00000000: ec39 033e 7b01 a3bd 842a 923d
0.12815064 -0.07959267 0.071370155
