regression/pt/regression_199.pt (torch, 1922 bytes, 1 tensors)

linear.weight f4 [1, 87]
0	0xbdc2b92b	-0.09507974
1	0xbe030e3d	-0.127984
2	0x3d2dd4b5	0.04243918
3	0xbd2356d9	-0.039877746
4	0xbde2f2a0	-0.11081433
5	0xbd7c8f32	-0.06166
6	0x3d0baa89	0.034098182
7	0xbde84b21	-0.11342455
8	0x3da8493a	0.08217092
9	0x3e31fcdb	0.17381613
10	0x3df505b0	0.119639754
11	0xbdfeb4d3	-0.12436833
12	0x3d41316a	0.047166266
13	0xbe48007a	-0.19531432
14	0xbdb58ac4	-0.08864358
15	0xbe04ca69	-0.12967838
16	0x3d64bab5	0.05584212
17	0xbb9475ee	-0.00453066
18	0x3d44810e	0.04797464
19	0xbc137dc0	-0.009002149
20	0xbd01fe94	-0.031736925
21	0xbdc9b1f6	-0.098483965
22	0x3de99558	0.11405438
23	0x3e25c605	0.1618882
24	0xbc388055	-0.0112610655
25	0x3e03ce64	0.128717
26	0x3c9b83be	0.018983718
27	0x3d5d54f3	0.054036092
28	0xbcc3c5a4	-0.023897953
29	0x3c294fb0	0.01033394
30	0xbc3b4b81	-0.011431576
31	0xbd6f1056	-0.05836519
32	0x3d967c8f	0.073479764
33	0xbcff3201	-0.031151773
34	0x3d985d3d	0.07439659
35	0xbcbec5b6	-0.023287635
36	0x3cf0d75f	0.029399572
37	0xbd7231d9	-0.05912957
38	0x3c708320	0.0146797
39	0x3ce48f6d	0.027900422
40	0xbd826341	-0.063665874
41	0xbda7295c	-0.081621855
42	0xbddb90a2	-0.10720946
43	0x3d4ed4ac	0.05049579
44	0x3d6b13b6	0.057391845
45	0xbd3e7753	-0.046500515
46	0x3d8e726a	0.069554165
47	0x3dc7981d	0.0974581
48	0xbd251066	-0.040298842
49	0xbd976994	-0.07393184
50	0xbd70ef56	-0.058822
51	0x3b9e8ad3	0.0048383265
52	0x3d847bcc	0.06468925
53	0x3e1668c3	0.14688401
54	0x3e171236	0.1475304
55	0xbdcfeae2	-0.10152222
56	0xbdefe4ca	-0.1171356
57	0xbcf5018b	-0.029907962
58	0xbddbdcc8	-0.1073547
59	0x3d808042	0.06274463
60	0xbd7a2f37	-0.061080184
61	0xbb8ec1f5	-0.0043566176
62	0x3b90a49c	0.004414154
63	0x3dbb4c87	0.09145456
64	0x3b80be76	0.0039289547
65	0x3dba0a1e	0.09083961
66	0x3db2400f	0.087036245
67	0xbd00a53a	-0.031407572
68	0x3d94b28a	0.07260616
69	0x3e2c8f77	0.16851602
70	0xbcaf2174	-0.021378256
71	0x3e0bc08a	0.13647667
72	0x3d643c00	0.055721283
73	0xbc100715	-0.008790751
74	0x3d8f674e	0.07002126
75	0x3d7c66dd	0.061621536
76	0x3c0c0546	0.008546179
77	0xbcf7a98b	-0.030232212
78	0xbc4e603f	-0.012596189
79	0x3db1db91	0.08684457
80	0xbcca0bf7	-0.024663908
81	0x3dbd11a2	0.09231879
82	0x3ddcaf6e	0.10775648
83	0x3d27bf82	0.04095412
84	0x3c9eb7aa	0.019374687
85	0xbd3e348c	-0.04643683
86	0xbd3bfc90	-0.04589516
