regression/pt/regression_99.pt (torch, 1916 bytes, 1 tensors)

linear.weight f4 [1, 87]
00000000: a27d a1bd 99a7 f0bd ae82 413d 7e58 aebc
00000010: f535 cbbd 5a85 1ebd 093c 493d a9a6 eabd
00000020: 796f a33d 9acd 163e 4b1e e93d f7bc bcbd
00000030: d709 6e3d 0dd1 28be 133f acbd c6fd dabd
00000040: acb9 563d a2b3 5dbc 0f46 5f3d 1e62 d0bc
00000050: cc0a 4cbd fac9 d3bd 6b89 cb3d c5ba 163e
00000060: 8588 64bc 0d94 ef3d ca7e 983b 9d37 283d
00000070: 8afd 0dbd 9a4f 5a3c deab 1abd 4aa7 43bd
00000080: ffe7 9f3d 2297 00bd b03f 933d 2ba3 d4bc
00000090: d0cc e13c 30ba 68bd 948f 883c c91f ec3c
000000a0: 752a 86bd e3a5 acbd a08d e0bd c145 503d
000000b0: 9827 5f3d 985a 2dbd 408d 883d d773 c13d
000000c0: fb55 2cbd f6dd 8ebd f78a 6fbd c3a8 6abc
000000d0: 27d3 823d 0256 153e 52f7 163e c4d0 cabd
000000e0: f8bc ebbd 60db ecbc c339 e2bd fbe0 7b3d
000000f0: d998 80bd 6b79 8cbb 348c 0e3a 3911 c53d
00000100: 5b7d 313b c396 b73d 74da af3d c219 e3bc
00000110: cf83 953d af65 193e d2c6 a8bc 5f6c 0c3e
00000120: cb8a 6a3d 5d73 cbbb e8b8 933d 2a8d 803d
00000130: 864b 933b 64f6 f8bc e4ec 60bc be11 b13d
00000140: 0a15 f1bc 7129 c83d 4185 dd3d 22df 293d
00000150: b5ca 993c 6121 32bd 7574 3abd
-0.07885291 -0.11750717 0.047243766 -0.02128243 -0.09922401 -0.038701393 0.04912952 -0.11457569
0.07980246 0.14726868 0.11382731 -0.0921573 0.058114853 -0.16485997 -0.08410468 -0.10692935
0.052423164 -0.013531597 0.054510172 -0.02543741 -0.049814984 -0.10341258 0.0993832 0.14719684
-0.013948564 0.1169816 0.0046537863 0.041068662 -0.03466562 0.013324643 -0.03776156 -0.04776696
0.078079216 -0.03139413 0.07189882 -0.02595671 0.027563483 -0.056818187 0.016670026 0.02882375
-0.06551067 -0.08430078 -0.10964513 0.050847773 0.05448112 -0.042322725 0.06667566 0.09445923
-0.042074185 -0.069759294 -0.058482137 -0.0143224625 0.0638793 0.1458359 0.14742783 -0.099031
-0.11510652 -0.0289132 -0.110461734 0.061493855 -0.062791534 -0.004286935 0.0005437762 0.096224256
0.0027082774 0.089643024 0.085865885 -0.027722243 0.07300531 0.14980195 -0.020602617 0.13713215
0.05726127 -0.0062088207 0.072130024 0.06276925 0.004495087 -0.030390926 -0.013728354 0.08645962
-0.029428978 0.09773529 0.10816432 0.04147256 0.018773416 -0.043488864 -0.04552122
