regression/pt/regression_49.pt (torch, 1916 bytes, 1 tensors)

linear.weight f4 [1, 87]
0	0xbbd47184	-0.0064832587
1	0x3d15dcd0	0.036587536
2	0xbe21ed5d	-0.15813203
3	0xbd0e8307	-0.034792926
4	0xbd6cc5c9	-0.05780581
5	0xbdb6c91b	-0.089250766
6	0xbcea402a	-0.028595049
7	0xbde94c4b	-0.11391505
8	0x3df84fd6	0.121246025
9	0x3da8499a	0.082171634
10	0x3ca8f602	0.020625118
11	0xbd5521f3	-0.05203433
12	0x3d050113	0.032471728
13	0x3d3aa3dc	0.045566425
14	0xbdeed439	-0.11661572
15	0xbda98784	-0.08277801
16	0xbd9c1da0	-0.07622838
17	0x3d35fd7b	0.04443119
18	0x3de83703	0.11338618
19	0x3d7b5cc8	0.06136778
20	0x3c1ed1ea	0.009693602
21	0xbdd70eb6	-0.10500853
22	0x3db6777c	0.089095086
23	0x3db0c8c5	0.08632044
24	0x3dff33a1	0.12461019
25	0x3d9b1f4f	0.07574331
26	0xbd64cb8c	-0.05585818
27	0x3deff7dd	0.11717198
28	0x3c9caf89	0.01912667
29	0x3ded6389	0.115912504
30	0x3dd97a0a	0.1061898
31	0x3c68108c	0.014164101
32	0xbbc0bfb9	-0.00588223
33	0xbd6c62af	-0.0577113
34	0xbc1be6aa	-0.009515444
35	0xbd3b13da	-0.04567323
36	0x3d82027c	0.0634813
37	0xbd04512b	-0.03230397
38	0xbdc02273	-0.09381571
39	0xbd803b15	-0.06261269
40	0xbd5f1536	-0.054463588
41	0xbc3bd925	-0.0114653455
42	0x3daccc23	0.084373735
43	0xbd8bab9c	-0.06819841
44	0x3db62756	0.088942215
45	0xbd2175c1	-0.03941894
46	0x3e032b45	0.12809475
47	0xbc36b6bc	-0.011151966
48	0xbcf0d74e	-0.02939954
49	0xbdd71163	-0.10501363
50	0xbcfb6f09	-0.030692594
51	0x3c9c4230	0.01907453
52	0x3dbafb9a	0.091300204
53	0x3de6f685	0.112774886
54	0x3cbaf528	0.022821978
55	0x3d5e1f0d	0.05422883
56	0xbd121437	-0.03566381
57	0x3c904896	0.017612737
58	0x3d97e9a9	0.07417614
59	0x3daaf6d1	0.08347858
60	0x3dc1f1d4	0.09469953
61	0xbd37d36e	-0.04487937
62	0xbc89abfc	-0.016805641
63	0x3dbe5c8d	0.092949964
64	0xbd8a1476	-0.06742184
65	0x3dfbebe5	0.12300853
66	0xbd55edef	-0.052228864
67	0xbcc5f2e5	-0.024163673
68	0xbce844bd	-0.02835309
69	0x3c256dc6	0.010096973
70	0xbd4be5d5	-0.04977973
71	0xbd4dcaae	-0.05024212
72	0x3ce38a48	0.027775899
73	0x3cdea284	0.027177103
74	0x3dd83a9e	0.10558055
75	0x3deb2fac	0.11483702
76	0xbd0e47ed	-0.034736563
77	0x3d3ab166	0.045579337
78	0x3dd3fe74	0.103512675
79	0xbd6d5f02	-0.057951935
80	0x3d18c12f	0.03729361
81	0x3d3e882b	0.04651658
82	0x3d95b4a1	0.07309843
83	0x3d97859c	0.07398531
84	0x3c54f5a6	0.01299802
85	0x3d0bfd4e	0.034177117
86	0x3d9b11ff	0.07571792
