regression/pt/regression_299.pt (torch, 1922 bytes, 1 tensors)

linear.weight f4 [1, 87]
000000 2f 77 de bd 3e 50 0a be 81 52 29 3d bd cf 5c bd
       -0.10862576 -0.13507172 0.041338447 -0.053909052
000010 4a ef f0 bd f4 a4 a3 bd 21 53 b2 3c 4a cd e6 bd
       -0.11764391 -0.07990447 0.021768155 -0.112696245
000020 a5 4f a9 3d e1 82 46 3e ca 59 fc 3d ca 29 17 be
       0.08267144 0.19385864 0.123218134 -0.14762035
000030 01 be 1d 3d dc 79 5e be 14 a2 b7 bd 9d 1b 16 be
       0.03851128 -0.21726173 -0.08966461 -0.14658971
000040 9d d8 70 3d f5 9d fb 3a 3f 38 2c 3d 8f c5 f4 3b
       0.05880033 0.0019196855 0.042045828 0.00746984
000050 f8 a6 90 bc 28 b2 bc bd 6a 45 00 3e 77 00 30 3e
       -0.017657742 -0.09213668 0.1252648 0.17187677
000060 76 f5 2e bc 1e bb 0b 3e e3 d1 f4 3c 40 fb 82 3d
       -0.01067864 0.13645598 0.029885238 0.063955784
000070 10 af 7f bc 52 15 e9 3b dc 1d 19 3c 00 c1 8b bd
       -0.015605703 0.0071131373 0.009345498 -0.06823921
000080 b2 75 8c 3d 91 ed 03 bd db df 97 3d c8 76 bf bc
       0.06858386 -0.032208983 0.07415744 -0.023372069
000090 b2 27 eb 3c c6 88 77 bd 1c c3 5d 3c 4f f3 e3 3c
       0.028705452 -0.06043317 0.013535287 0.02782598
0000a0 5a eb 7d bd 2d 1e a1 bd 99 cb d6 bd e9 6b 4e 3d
       -0.061992027 -0.07867084 -0.10488052 0.05039588
0000b0 7e 1c 75 3d 22 f2 4b bd 9c 00 8f 3d 29 36 c8 3d
       0.059841625 -0.049791463 0.06982538 0.09775955
0000c0 2d 7a 1f bd 7c 4c 99 bd 5f a4 72 bd 28 c9 9f 3c
       -0.038934875 -0.07485291 -0.059238788 0.019505098
0000d0 f0 e2 80 3d c7 d3 14 3e dc cd 14 3e d8 db d2 bd
       0.06293285 0.14533912 0.14531654 -0.10295838
0000e0 8a 46 f2 bd ff 0a f6 bc 79 74 d6 bd d4 24 84 3d
       -0.118298605 -0.03003454 -0.10471434 0.06452337
0000f0 69 fd 72 bd 8d e9 8a bb a3 3a f9 3b b9 a3 b3 3d
       -0.059323702 -0.004239267 0.007605867 0.08771462
000100 ac 7b 34 3b ea 63 b7 3d a1 0d b4 3d 7c cb 02 bd
       0.0027539534 0.08954604 0.08791662 -0.03193234
000110 ab bb 93 3d 0e 3a 3b 3e 28 dc c8 bc bd a4 08 3e
       0.07213529 0.18283865 -0.024519041 0.13344093
000120 03 62 55 3d e6 ad 28 bc 1f e7 8c 3d 4c 69 7b 3d
       0.052095424 -0.010295367 0.0688002 0.061379716
000130 da 46 43 3c e7 8f f0 bc 61 f7 38 bc eb ce b2 3d
       0.011918748 -0.029365493 -0.0112894485 0.08730873
000140 68 3d aa bc f8 63 b4 3d 80 6b d7 3d 06 59 1c 3d
       -0.020781234 0.0880813 0.10518551 0.038170837
000150 05 2f a2 3c 06 cd 3d bd 92 d0 3d bd
       0.019797811 -0.046338104 -0.046341486
