cnn/CCNN_MAC.pt (torch, 265420 bytes, 8 tensors)

conv1.weight f4 [16, 1, 5, 5]
00000000: 3875 263e 4704 d5bd 8a6c 013e 7287 32be
00000010: 9c06 e93d e8e8 383e 23c0 573e 6858 f93d
00000020: 69c1 043e bc28 b33c c9fc 26bc 2dd6 1a3e
00000030: 8d59 0e3d 9d40 133e 6ec4 a23d 90f5 1bbe
00000040: 061c bf3d 2770 033e 8600 abbd 0da7 173c
00000050: e5b2 cebd bceb 06be 25e1 1f3e d62c 083e
00000060: 57e5 87be 60b5 303e b1e0 273e a637 893e
00000070: c659 143c ce03 7b3e 66fa d93d 89a0 843e
00000080: 751b 0abd 690f 68bb c91d 923d 52b2 b33e
00000090: eaa1 db3d 5cda 11be d61c a8bc 239f 30bd
000000a0: 1962 5e3d cca8 65be 625a 54be dc61 4cbe
000000b0: 0883 5ebe 6642 4ebe ddf4 96be e69c 87be
000000c0: faee bfbd 4526 043d 09a5 01bd 7caa fcbd
000000d0: e26d 1a3d 1e98 fa3d 5ac4 72bd 2cff 413e
000000e0: ae3b 73bc d5be 3cbe 88cc 3e3e bc2f c7bd
000000f0: a2ad 7e3d c7d2 6ebd 4be2 28be 30d7 113e
00000100: 72e2 34bd 272e 4cbe 7c86 3a3c 7553 fd3d
00000110: 0d92 743e 91f2 4dbe 4dfa 85bd 1c29 43bd
00000120: 6de3 c43d e401 533e 1057 4c3e 0ba3 35be
00000130: 4e05 ca3d b4a5 08be cb52 92be cf74 93bd
00000140: 08be 913c 5b43 593e 7d73 b2bd 99e6 b6bd
00000150: bf66 3abe d185 a8bb f49c 1c3e dd9a 7bbe
00000160: f7b9 38be b0d0 c2bd aa98 46be 324c f23d
00000170: 28e2 c13d d1cd 8b3c 1282 51bd af26 1f3d
00000180: 1e09 933e 2805 563e 77cd b83e d6ed ef3d
00000190: 973e 603e 30f3 873e 1805 bfbc 9446 9e3d
000001a0: c528 1e3e e090 12be e28a d33d ddc9 1b3e
000001b0: 595b 993d dc64 8bbd 59c1 60bd d53f 8d3d
000001c0: c501 513a b45d a93d 5b1f 473e a544 81be
000001d0: 47e6 83be 767e da3c bb64 c5bd 634a e43d
000001e0: d885 20be 3d5d 56be 56a2 37be d0f0 c5bd
000001f0: 9d3c 29be f5ee 5abe 28d8 8cbe b49f 49be
00000200: 59c2 5ebc c81c 753c f09d 60be f5eb 8bbe
00000210: 938d ed3d 9766 b23d d7e1 613e 1c33 aebe
00000220: 8ea5 2c3e e2d0 183e 912b 033e a808 0abe
00000230: cb7e 813d 91c6 4bbd 196b 843d a1a6 ea3d
00000240: 9d81 f73d 6153 013e c8fb 303d c24f fe3d
00000250: 3d6f f2bd 5a8f 773e d203 4bbe 072e 723d
00000260: 0d60 743e ed95 743e 1182 133e 4ea6 723e
00000270: ad46 b0bd 33d5 d43d bd0f 273e e0f9 b73d
00000280: e889 8abc 58f8 1e3e 43c3 9ebd b70a 8bbc
00000290: cb69 05bd 5b80 e5bd dbd3 f3bc 0281 23be
000002a0: 06e0 5b3d 250a 7b3e 05a8 883c bd7c 68be
000002b0: 31a6 96be f89e 89be a4ea 15be 91e8 45be
000002c0: 9065 493e 97ad cd3d 88e9 233e 2701 863d
000002d0: 043f 0c3e 6aa9 b6bd 9281 24bc f69d bd3d
000002e0: 4050 273e 59ba 17be 5554 6dbe 79c3 b0bd
000002f0: f224 7d3e 4be5 cfbd ab1a 7abe cbb4 fc3d
00000300: 25ee bcbd b0b3 7a3d b3f3 0b3e 1518 ad3c
00000310: 463c d6bd 8e4d fabd adb3 cebc 110f 8b3d
00000320: f3be 1bbe 8b36 91be 1258 c73d 1960 333e
00000330: ace0 7abd f7c1 603e a2c8 a9bd 3b77 fcbd
00000340: 7a3a 2f3e 1c6d 7cbe 8dd2 8c3d e29b 893e
00000350: 6474 ba3c e383 0bbe 49b5 743d 48e4 44be
00000360: e22e d3bc 150a e7bd 0d10 51be 22d7 523d
00000370: d99f 08be 8b4c 323d 4722 683e 9d7c 853d
00000380: a1bd 413d 01cb 34be eab0 163e 6a21 833d
00000390: b92a c43c 1ec7 763e 2215 4f3e b830 833e
000003a0: eeb1 bebb b364 37bd f9ad aabd 0812 28bd
000003b0: 59e5 b43d ec7f 8d3e 4932 8f3e b70f c83d
000003c0: 02e4 0dbe ae28 a3be d1dd abbe 0ee9 42be
000003d0: d0c7 54be 3ea1 dbbc b4d6 8bbe 2df6 13be
000003e0: 8a1c 85be 7a95 773b 946f 743d f048 ad3d
000003f0: 846c 9bbc 187a 78bc 4f72 483d 5e65 503e
0.16255653 -0.104012065 0.1263906 -0.17434481 0.11378214 0.18057597 0.21069388 0.12175065
0.12964405 0.02187001 -0.010192105 0.15120764 0.03475337 0.14380117 0.07947622 -0.15230393
0.09331517 0.12835751 -0.08349709 0.009256137 -0.10092715 -0.13175863 0.1561323 0.13298354
-0.2654216 0.17256689 0.16394307 0.2680027 0.009054607 0.2451317 0.10643463 0.2590373
-0.03371759 -0.0035409576 0.07134587 0.35096985 0.10724242 -0.14243454 -0.020521563 -0.043120515
0.054292772 -0.22427672 -0.20737603 -0.19959205 -0.21729672 -0.20142516 -0.2948369 -0.26486892
-0.09371753 0.03226306 -0.03165153 -0.12337205 0.03770245 0.12236045 -0.059269287 0.18944997
-0.014845772 -0.18432172 0.1863271 -0.097259015 0.062177308 -0.05830648 -0.16492574 0.14242244
-0.044161268 -0.1993948 0.011384603 0.12369434 0.23883839 -0.20112063 -0.06541882 -0.047646627
0.096136905 0.2060619 0.19955087 -0.17737977 0.09864293 -0.1334446 -0.2857879 -0.07200014
0.01779081 0.212171 -0.08713434 -0.08930702 -0.18203257 -0.0051429053 0.15294248 -0.24570794
-0.1803969 -0.0951246 -0.19394174 0.11830939 0.09466964 0.017065914 -0.051149435 0.03885525
0.28717893 0.20900404 0.36094257 0.117152855 0.21898876 0.26552725 -0.023317859 0.077283055
0.1544524 -0.14313078 0.10329224 0.15213723 0.07488126 -0.06806347 -0.05487189 0.068969406
0.0007972981 0.082698256 0.19445555 -0.25247684 -0.25761625 0.02667163 -0.096383534 0.11147001
-0.15676057 -0.20934005 -0.1793302 -0.09665072 -0.16527028 -0.21380217 -0.27508664 -0.19689828
-0.013596141 0.014960475 -0.21935248 -0.27328458 0.11599269 0.08710974 0.22058807 -0.34023368
0.16860029 0.14923432 0.12809588 -0.13479865 0.06323012 -0.049749915 0.0646574 0.11457563
0.12085269 0.12629463 0.043208867 0.12417556 -0.11837623 0.24175778 -0.19825676 0.059125926
0.23864765 0.23885317 0.14405085 0.23696253 -0.0860723 0.10392227 0.16314597 0.08983207
-0.016911462 0.15524423 -0.07752087 -0.016972883 -0.032571595 -0.112061225 -0.029764106 -0.15967181
0.053680442 0.24515589 0.01668168 -0.22703834 -0.2942367 -0.26879096 -0.1464029 -0.19326998
0.1966765 0.10042875 0.16007054 0.065431885 0.13695914 -0.08919032 -0.010040658 0.09258644
0.16339207 -0.1481718 -0.23176701 -0.086310335 0.24721125 -0.10151156 -0.24424236 0.12339171
-0.0922511 0.06120652 0.13667183 0.021129647 -0.10460715 -0.12221824 -0.02523216 0.06789983
-0.1520956 -0.28361925 0.09733595 0.17517127 -0.06124942 0.21948992 -0.08290221 -0.12327429
0.17112151 -0.24650997 0.06876097 0.26876742 0.022760577 -0.1362453 0.0597432 -0.19227707
-0.025779191 -0.1128122 -0.20416279 0.051474698 -0.13342227 0.04353003 0.22669326 0.06517909
0.047299985 -0.17655565 0.14715925 0.064028576 0.023946153 0.24099395 0.20222905 0.25623107
-0.0058195507 -0.04477377 -0.08333964 -0.04103282 0.08832807 0.2763666 0.27968052 0.09768622
-0.1385651 -0.31866974 -0.3356767 -0.19034216 -0.20779347 -0.026810285 -0.27312243 -0.14449377
-0.25998336 0.0037778304 0.05967672 0.08461177 -0.018972643 -0.015165828 0.04893714 0.20351169

conv1.bias f4 [16]
00000000: 92d0 e0bd b232 e13b 333a bfbd de03 6cbc
00000010: d53c 2f3b c839 a7bd 5b8b ef3a 6cb1 15bd
00000020: 9131 b8bb f062 a53d 942d 353c 7df8 35bd
00000030: 1f4a 58bd ce12 053e a313 e93d 4c57 cebc
-0.10977282 0.0068724984 -0.093372725 -0.014405219 0.002673914 -0.08165318 0.0018275784 -0.036546156
-0.005621143 0.080755115 0.01105823 -0.04442643 -0.052805062 0.12995455 0.113806985 -0.02518811

conv2.weight f4 [32, 16, 5, 5]
00000000: 8304 733c a61b 39bd 81a8 14bc 9dcc e13c
00000010: 5063 823c f86d 373d e4fd 023d bbb7 aebc
00000020: 6df1 0d3b ec21 b5bc acc7 383d 2d53 d8bc
00000030: 8c37 803c 7785 15bd 975d 533c b761 963a
00000040: 4e3d eebc 46d8 b9bd 0fbd b5bc 2799 da3c
00000050: 629f 4f3c 0c93 943d 6398 303d 4bf9 2d3d
00000060: baea c5bc 4c5f b1bc b3dc a8bc e654 f2bd
00000070: 74af c53b 0e84 3b3e e5d6 d8bd 6f95 c2bd
00000080: 8182 fc3c fa5d 773d 3837 c3bc 279d 023d
00000090: ad5c b33d 77cb 493d 70fd 333d 08c3 59be
000000a0: b1c6 8dbc 1b02 81bd f5a7 a8bd 4875 c3bd
000000b0: 5c14 96bd 8565 cfbd fcf1 babd f158 2dbd
000000c0: 7f58 9fbd 47f2 503d df82 03bd 077b 0e3d
000000d0: 87a3 aa3d d7f5 4bbc cd1f dcbc 45e8 e13c
000000e0: 5ef4 693c 8421 dbb7 5d8d 513d f480 8b3c
000000f0: cca7 3fbc 236d d1bd abda 16bd 0269 273c
00000100: 545a 2cbc fe00 26bc cc3b 133c a0b3 37bd
00000110: bd26 db3b 8e26 cd3c 49e1 293d 3cf8 a93c
00000120: 057b 043b 15ed ffbb e90c 313d d9f1 963b
00000130: ba02 0c3e e234 d53d 8691 613d 23bf 8abc
00000140: bf0b f23c e5bd 55bd 9777 a33d 442f be3d
00000150: d4f5 c33d c408 7ebd 7e8a cf3c 0cc6 42bd
00000160: 451a 1ebd fe36 42bc 4732 6e3c 8a0d 0e3e
00000170: 9557 8f3c fc95 22bd ba99 a5bd b9a9 2bba
00000180: 1a68 9e3c e2ba 0b3d d1d1 5abd 31ec 22bd
00000190: 91ea b4bd c3d4 a2bd ad36 66bd 5935 e63b
000001a0: 9f68 1a3e 215f 2bbd 2c7f d8bd db1a 0fbd
000001b0: 8be6 8c3d 27f1 8c3d bb2d 563d dd9a 803d
000001c0: 261d ba3d 4c36 ff3d ddc8 5abd 995f 963d
000001d0: 1dec 1bbb ed98 bfbd f4f3 b5bd bea7 18be
000001e0: 6af2 6cbc acba 03bd 684e 0bbc 5df4 9fbc
000001f0: d03c 303c ac48 d33a 1214 abbc 6125 b53d
00000200: 0392 c13d e60c ebbc da3a 36bc 5477 a83d
00000210: 82f2 b63d d099 00bd 4d55 bfbd bfe6 adbd
00000220: fe9b 1a3c ab5a c3bd 67f6 f2bd ffb4 0cbd
00000230: ff94 14bd de3d a1bd de9f b83a 414f b4b9
00000240: af95 34bd 0487 803b ebcd 5a3d 4e8e aa3d
00000250: 76eb 883d c61a 0cbd cfe6 e3bb e846 c5bd
00000260: cbda dabd 7426 643d 1b2d 103e 89d9 05bd
00000270: 9a71 0f3d 454d 2f3c 3400 563d 5ebf 09bd
00000280: 753e 4c3d 15c5 963d 8ef5 be3d bee8 b13d
00000290: 0d51 64be f9d2 4d3d 2efb 3cbc f8a7 28bd
000002a0: 823f e1bd 4f07 e5bd cd44 d6bc 85c9 7bbd
000002b0: 93c9 5bbd c07f 823d 4480 dd3c c6dd 37bd
000002c0: 78f8 c73b 1211 983c 0cea 1ebd bcb0 8cbc
000002d0: 70b5 09bd 0316 07ba 007e bc3c ff0b 3e3d
000002e0: 67e2 92bd 9866 0d3d e1c4 2c3d 0a37 ac3c
000002f0: 2472 423d 9724 46bd 27c7 733d d6e1 07bd
00000300: d2a2 4abd 189d 533d b65b 763d 6601 693b
00000310: 4b56 8b3c e2a6 12bd f487 2e3c 9830 153d
00000320: 4f37 16ba f3c5 723d 3748 5a3d 1051 ce3c
00000330: bec3 cbbc 2b95 483d 5985 b7bc 6fcf 9a3d
00000340: 1778 de3d 6742 3f3d a51d 8a3b dbdf 993d
00000350: 6181 453d e032 2d3c a0fd db3c e0e3 083d
00000360: c3e8 b53c ee46 93bb e02a 05bd 00fe c83b
00000370: fc30 46bc 75c0 d23d 0098 5c3c e236 c73c
00000380: 26b8 16bd dd53 2d3c 17d1 e7bd 9e96 efbc
00000390: 2fbc 8a3d e2d9 d73d d138 8cbd c963 683d
000003a0: 2617 c43d cf7a 1e3e 547e 813c a3ed a43d
000003b0: 2d7f e13d d9b4 3c3e 39d5 a93d 5dd0 b6bd
000003c0: 4e83 7a3a 0fa4 2fbd 60ea a4bc ae95 ebbd
000003d0: 33d4 81bd f00f c4bd c2c9 c8bd 7922 aebc
000003e0: ad84 60bc faa6 d03c cfcc 383d b5df 363e
000003f0: 3f66 9b3d 25e8 e73d 0be2 033d 2cae e93c
0.014832619 -0.045192383 -0.009073378 0.027563388 0.015916497 0.04478261 0.03198041 -0.021327844
0.0021658794 -0.022110902 0.045112297 -0.026406849 0.015651487 -0.036504235 0.0129007315 0.0011473213
-0.029081967 -0.09074454 -0.022184877 0.026684357 0.012672277 0.072546095 0.043114077 0.042474072
-0.024159778 -0.021651886 -0.02061305 -0.11832599 0.0060328785 0.18312094 -0.10587863 -0.095011584
0.030823948 0.060392357 -0.023830041 0.031888153 0.08757911 0.049266305 0.04394287 -0.21265805
-0.017306658 -0.0629923 -0.0823516 -0.09543854 -0.07328102 -0.10126785 -0.09128186 -0.04232115
-0.07780551 0.051012304 -0.03210723 0.034785297 0.083319716 -0.0124487495 -0.026870633 0.027576575
0.014279453 -2.6122441e-05 0.051160205 0.017029263 -0.011697721 -0.10225894 -0.03682963 0.010217907
-0.010519583 -0.0101320725 0.008986425 -0.044849038 0.0066879676 0.025042798 0.041474614 0.02074825
0.0020214927 -0.007810245 0.043225203 0.004606467 0.13672915 0.10410477 0.055070423 -0.016936844
0.029546617 -0.05218305 0.07981794 0.09286359 0.09568372 -0.06202008 0.025334593 -0.047552153
-0.03859927 -0.0118539315 0.014538354 0.13872352 0.017497817 -0.039693817 -0.08085962 -0.0006548423
0.019336749 0.034113772 -0.053422753 -0.03977603 -0.088338025 -0.07950737 -0.056204487 0.0070254025
0.15078972 -0.04183877 -0.10571131 -0.03493772 0.0687991 0.06881934 0.052289706 0.06279538
0.09087591 0.12461528 -0.053414214 0.073424526 -0.0023791858 -0.0935534 -0.08884421 -0.14907739
-0.014462093 -0.032160446 -0.00850258 -0.019525701 0.010756686 0.001611968 -0.020883594 0.0884502
0.09451678 -0.028692674 -0.01112243 0.08225885 0.089329734 -0.031396687 -0.09342442 -0.08491277
0.0094366055 -0.09538778 -0.11863404 -0.0343523 -0.036274906 -0.07873128 0.001408573 -0.00034391324
-0.044088062 0.003922345 0.053419035 0.08327924 0.066855356 -0.03420522 -0.0069550048 -0.09632665
-0.10686263 0.055700734 0.14079706 -0.03267816 0.03502045 0.010699575 0.052246287 -0.033629768
0.04986425 0.07361809 0.093241796 0.0868697 -0.22296543 0.050250027 -0.011534495 -0.041175812
-0.10998441 -0.11183035 -0.026155854 -0.06147148 -0.053659033 0.06372023 0.0270387 -0.044889234
0.006102618 0.018562827 -0.038797423 -0.017174117 -0.033620298 -0.00051531213 0.0230093 0.04639816
-0.07172089 0.03452167 0.042179946 0.021022338 0.047472134 -0.04837474 0.0595161 -0.03317436
-0.049471684 0.05166349 0.060146056 0.0035553812 0.017008921 -0.035803683 0.010652531 0.036423296
-0.00057302875 0.05927081 0.053291526 0.025185138 -0.02487361 0.048970383 -0.022402452 0.07559096
0.10862749 0.046694186 0.0042149597 0.075134 0.04821909 0.010571212 0.026854336 0.033420444
0.022205716 -0.0044945395 -0.032511592 0.006133795 -0.01209664 0.102906145 0.013463974 0.024318162
-0.03679671 0.010579077 -0.113191776 -0.029246625 0.067741744 0.10539605 -0.06846774 0.056735788
0.09574728 0.15476535 0.015807308 0.08053138 0.11010585 0.18428363 0.08292622 -0.08926461
0.0009556309 -0.042881068 -0.02013129 -0.115031585 -0.06339302 -0.09573352 -0.09804107 -0.021256672
-0.013703507 0.025470246 0.045117196 0.17858775 0.07587861 0.11323575 0.032197993 0.028525434

conv2.bias f4 [32]
00000000: d659 abbc 5596 863d e835 68bd e352 2c3d
00000010: 9365 233d d44f 0e39 8743 bb3c 658e 67bc
00000020: 5374 af3c a83e 8038 dfff 4fbd d246 f2bc
00000030: 6f38 9ebd c779 153d e5d8 36bd 4d6f 153d
00000040: 1d96 b9bb 698c 253c fa31 6ebc 2816 cb3a
00000050: eef5 22bb 6748 0dbd c3f7 aabc 3234 a33c
00000060: 4f44 c4bc f511 fd3c c285 d33c 2b22 6bba
00000070: 046e eb3c 6ff1 633d 78fa dd3c 2aa3 5bbc
-0.02091686 0.06571642 -0.056692034 0.042071234 0.03989179 0.00013571914 0.022859348 -0.014133071
0.021417772 6.115186e-05 -0.050781127 -0.029574785 -0.077256076 0.03649309 -0.04464044 0.036483098
-0.005663647 0.010104277 -0.0145382825 0.0015494274 -0.0024865824 -0.034492876 -0.020870095 0.01992235
-0.023958353 0.030892352 0.025820617 -0.000896963 0.028738983 0.05565017 0.027096972 -0.013405601

fc1.weight f4 [100, 512]
00000000: 5ca1 6cbd 0dc2 f03c 5633 883d 8c1d 793d
00000010: a458 db3c 0501 34bc 273c 873d eb1c d53d
00000020: d828 c13b d1e2 06bc d7fd 603c d872 4ebc
00000030: 9b0f 233d 1c30 ad3a 8151 6b3d 1380 10bd
00000040: 9579 343d 1788 e93d f271 493d 67fe 2cbd
00000050: 3ba4 5c3d f9f8 933c dfd4 48bb d004 0bbd
00000060: 2eaa d93a bf8c 90bd abd4 35bd ac97 97bd
00000070: 9e66 b73d 4ab7 74bd d2d4 c7bd f83b 28ba
00000080: 49d7 4cbd f69a 673d 9b38 af3c 03ef 833c
00000090: 5902 89bc 0d10 073d 5ff8 17bd d1f1 e9bc
000000a0: 0425 ab3d d49a 353d b149 90bb 73b9 84ba
000000b0: 7529 9f3d 2e0c a03d 7098 57bd 3c90 26bd
000000c0: c62d 213d 9a22 603d b2fb c1bd 1b63 ed3c
000000d0: c139 a1bc 8dac 3b3c 82d3 bb3b 4f0b 99bd
000000e0: 162a 273d 32d9 2ebd 592a a3bd 5d2c 9fbc
000000f0: 5a41 503c 8a67 863d f3c4 d9bc 25a3 45bb
00000100: 3bc2 61bc f0ec 003d 92c3 553b 3d11 09bd
00000110: c56b 353d ed25 99b9 7126 e4bc f218 82bd
00000120: 4c2c 7fbd a2d0 80bc eba8 f23c c03d 333d
00000130: 6290 efbd d99c 9fbd 43e9 d8bc 2207 8bb8
00000140: 2784 2a3b 0602 f3ba c820 cabd f1b6 d2bc
00000150: 2085 d13c 96e7 03bd 2824 5f3c bf20 4c3c
00000160: 0d2a 6cbd 0923 f2bc 506f 74bd e363 8a3b
00000170: b11e d0bc 8373 c93b 0a71 0cbd 7ef2 80bd
00000180: e773 97bd b5a1 cfbd 0805 9c39 742d 9f3d
00000190: 4e6f 94bd 6cee 2c3c 92ee c9bc 4451 053c
000001a0: 7f8b b6bd cff6 1fbd e2e9 c73c 225e 903b
000001b0: 49b9 b3bd 0bec 333d 0ec6 12bd dca5 2f3b
000001c0: 1330 6e3c 2d44 923b 48e4 13bd 1f0d 02bd
000001d0: 236b f2bc a06c 9cbc dd50 2f3d 5c30 a13c
000001e0: 281b 053d dd30 83bc 0dfc 223d 8be3 3f3d
000001f0: 9b72 e23c 5f2b 4cbd 7330 f0bc 2743 be3c
00000200: 6046 493b 2903 2ebc f8d1 843c 94e8 033c
00000210: 41e4 483d d8c4 9b3c 53d0 59bc 70fe 273d
00000220: 8d2a f1bb 5daf 903c 79bc 14bc 9181 03bd
00000230: e7c5 803d 2832 87bd a2ae bfbc bd6e 873d
00000240: b3c5 6cbd 7c0a 4dbd f9d1 b53d 6877 243e
00000250: 836d 723c fc8d f83c 50f4 eb3c 24fa 0c3e
00000260: ea1b 05bc 3a01 823b 0e2e 293d c569 69bc
00000270: 4f4c 07bc ac71 203d d4da 253d de8c 0e3d
00000280: ff63 e2bb 0f1e 00bc eeeb a4bd d6c3 adbd
00000290: e9ab b93b 6030 6abb 8e1e 2ebd 4ff2 1b3d
000002a0: b4c9 ac3d 0555 743d 5fcb 74bd 0483 1ebd
000002b0: afcc 503d 79be febc daac 51bc 5db9 cebb
000002c0: 454d afbd 336a a43c d676 38bd 2bd2 773d
000002d0: c7bc fa3c e572 1e3d b20b 863c 36a0 7cbc
000002e0: f18e a33d 7d65 05bb 9a9d ed3c a9a9 ab3d
000002f0: 7b39 8e3c e303 07bc 2cba 83bd 7b0c 86bc
00000300: 7df2 df3d bc62 b4bd 953e 0dbc e890 e7bd
00000310: edc4 babd 4295 713b 576c edbd 51b2 17bd
00000320: d295 11bd c4d1 2b3d faea 253d 1b19 d3bc
00000330: 09e4 babc 317a 82bd a9be edbb 8c3f 9fbc
00000340: e10a b9bd 1c11 d8bc c54b 1bbc 59a8 3abd
00000350: f678 a2bc 3609 663d ff46 403d b925 353c
00000360: 884c fcbd 1237 53bd 9178 f33c 62ca 423d
00000370: 982a 193d 4c2e b43d 5054 0eba c99a 2a3c
00000380: 44c7 2ebc 0025 d53d 9a58 923d f35c 333b
00000390: afe9 f53c 815f ee3c b779 ccbc 34a8 d2bc
000003a0: 0280 463d eb76 e23c 1b28 d53a 91a7 34bd
000003b0: 8e44 ab3d e774 f13d ec72 243d e04b 23bd
000003c0: a7be aabd d769 4dbd 23c6 ebbc 27d5 40bb
000003d0: b0d0 a83d a082 763b 2a8b e23c 1e8d 08bd
000003e0: b613 c83d bd46 2e3d d63b 53ba e9bf 5abd
000003f0: 7656 b7bc 611f 883d d942 ef3c cefe 91bb
-0.05777107 0.029389406 0.066504166 0.060819194 0.026775666 -0.010986571 0.0660327 0.10405906
0.0058947615 -0.008232788 0.013732395 -0.012600623 0.039809804 0.001321319 0.057450775 -0.03527839
0.044061262 0.1140291 0.049180932 -0.042234804 0.05386756 0.018063055 -0.003064446 -0.033940136
0.0016606504 -0.07058095 -0.04439227 -0.07401976 0.089551196 -0.05974511 -0.09757389 -0.00064176274
-0.05001 0.056544267 0.021389296 0.01610518 -0.016724752 0.03297429 -0.0371021 -0.02855769
0.083566695 0.04433711 -0.004403316 -0.0010126069 0.07771579 0.07814823 -0.05263561 -0.040664896
0.039350294 0.0547205 -0.09471835 0.028977921 -0.01968086 0.0114547135 0.005732001 -0.0747286
0.04081162 -0.042687602 -0.079670615 -0.019430334 0.0127108935 0.06562717 -0.02658317 -0.0030157056
-0.013779218 0.03147596 0.003261779 -0.033463705 0.04429223 -0.0002921069 -0.027850362 -0.06352414
-0.062298104 -0.015724484 0.029621562 0.04376006 -0.11697461 -0.07793588 -0.026478415 -6.629365e-05
0.002601871 -0.0018540032 -0.09869534 -0.025721999 0.025576174 -0.03220328 0.01361946 0.012458979
-0.05765729 -0.029557722 -0.05967647 0.004223333 -0.02540526 0.0061478033 -0.03428749 -0.06296252
-0.073951535 -0.10138265 0.00029758387 0.07772341 -0.07247792 0.010554891 -0.024649892 0.008137051
-0.089133255 -0.039053734 0.024403516 0.0044057528 -0.08775575 0.04392628 -0.03583341 0.002680174
0.014537829 0.0044636936 -0.036106378 -0.031750795 -0.029592102 -0.019094765 0.042801727 0.01967638
0.0324966 -0.01601451 0.039791156 0.04684786 0.027642539 -0.04984605 -0.029319977 0.02322538
0.0030712113 -0.010620871 0.016213402 0.008051056 0.049045805 0.01901476 -0.013294297 0.041014135
-0.007359809 0.017661745 -0.0090781385 -0.032105986 0.06287747 -0.066013634 -0.023398701 0.066129185
-0.05780573 -0.050058827 0.0887794 0.16061175 0.014796617 0.03034114 0.02880302 0.13767296
-0.008124331 0.0039674314 0.041303687 -0.014246409 -0.0082579395 0.039170906 0.040491894 0.03480231
-0.006908893 -0.0078196665 -0.080528125 -0.08484618 0.0056662452 -0.00357344 -0.042509608 0.03807288
0.08436909 0.059651393 -0.059764262 -0.038699165 0.05097645 -0.031096684 -0.012797559 -0.006308718
-0.0855966 0.020070171 -0.045035206 0.060503166 0.030607594 0.03868379 0.016362999 -0.015419057
0.07986248 -0.0020354681 0.029005814 0.083819695 0.017361393 -0.008240673 -0.06431994 -0.016363373
0.10934923 -0.088078946 -0.008620878 -0.113069355 -0.09119592 0.0036862646 -0.1159293 -0.03703529
-0.03554327 0.041948095 0.040507294 -0.025768807 -0.022813814 -0.063709624 -0.0072553945 -0.019439481
-0.09035278 -0.026375346 -0.009478514 -0.045570705 -0.01983307 0.056161128 0.046942707 0.011056357
-0.12319285 -0.05156619 0.029720576 0.04755629 0.037394136 0.08797893 -0.00054294337 0.01041288
-0.010667626 0.10407448 0.07145806 0.0027368634 0.030018656 0.029098274 -0.024960382 -0.025714971
0.04846192 0.027644595 0.0016262563 -0.044105116 0.08362685 0.117898755 0.04014866 -0.039867282
-0.08337145 -0.050149765 -0.028781002 -0.0029423924 0.08242929 0.003761448 0.02765425 -0.033337705
0.097693846 0.04254793 -0.00080579275 -0.053405676 -0.022380095 0.0664661 0.02920668 -0.004455424

fc1.bias f4 [100]
00000000: 7fcc a6bb a86f 37bd 2553 a43b dbbb cc3c
00000010: d28e 02bc 7c77 febc 34cc 0c3d 8541 283d
00000020: f6b6 78bc 49ee 193d 38b2 593d ccc8 643d
00000030: 908c 12bc 58ae ebbb 2012 eabc 93fa 02bd
00000040: d4bd f9bc 97a6 483c c378 b5bc 0a96 aa3c
00000050: 1630 0a3d 70b8 7abd 932d ec3c d1ab acbc
00000060: e9be 9c3c 8603 87bd a1f4 fd3c 76ec 85bc
00000070: 2ca5 09bd 1a8a d3bc bb3c b9bc d630 e13c
00000080: cf54 e83b 8ade 083c 1735 533b d120 473c
00000090: 1a5a 3d3d 6a97 f2bc fe16 06bc a651 abbc
000000a0: c6e4 b03c 01bf debc c33e 2cbc bf28 553c
000000b0: e259 483d b44a cf3c a552 00bd 2fbc 953a
000000c0: a316 23bb ce57 da3c 2233 69bd 1e00 423c
000000d0: 6dae a0bc 7a7d 35bd 2f1c 3ebd 0fc0 943d
000000e0: 03ad 633b d28e 163d 196a d33c 9ccb 4e3c
000000f0: 02d3 83bd a769 f53c 6ced 2abd 1bd9 4c3d
00000100: f853 453c 802c 09bc 76ca 31bb 9a05 7c3d
00000110: d0f0 2bbc 963e fbbb 4159 28bc cb2a 36bd
00000120: e9ef f03c da64 013c 963e 963d 9649 19bc
00000130: 61aa 2cbd 51b6 64bd 4fbf 5f3c 1596 cabc
00000140: 4c60 bebc 24bd a23c a58f cc3c 5e25 ccbc
00000150: 5139 0a3d 0cbd 003d 8130 4fbb d5a7 8b3c
00000160: ed08 4dbc b946 0f3c a76d 5bbd e5e7 323d
00000170: 9bfc f23c 95a3 03bd a84c 30bd 2648 b23a
00000180: 4e92 cebc 7e0d 513c a0bc 5d3b aaf5 8c3a
-0.005090296 -0.044784218 0.0050147944 0.02499192 -0.007968621 -0.031062834 0.03437443 0.04107811
-0.01518034 0.037580762 0.05314848 0.055855557 -0.0089446455 -0.0071924143 -0.028573096 -0.031977247
-0.030486025 0.012246749 -0.02215231 0.020823497 0.033737265 -0.06121105 0.028830325 -0.021078022
0.019134002 -0.06592469 0.031000437 -0.016348105 -0.033604786 -0.025822688 -0.022611966 0.027489107
0.007090188 0.008353839 0.003222769 0.01215382 0.046228506 -0.029613215 -0.008184193 -0.020912956
0.021593463 -0.027190687 -0.01051301 0.013010203 0.048913844 0.025304176 -0.031328816 0.0011423881
-0.0024885319 0.026653197 -0.05693353 0.011840848 -0.019614423 -0.044309117 -0.046413597 0.07263195
0.0034740574 0.036757298 0.025807427 0.012621786 -0.06436731 0.029957606 -0.04173033 0.050011735
0.0120439455 -0.008372426 -0.0027128733 0.06152878 -0.010494426 -0.007667373 -0.010275186 -0.044474404
0.029411273 0.00789758 0.07336156 -0.009355923 -0.042154673 -0.055837933 0.013656451 -0.024729768
-0.023239277 0.01986558 0.024970839 -0.024920162 0.033746067 0.03143029 -0.0031614604 0.017047802
-0.012514335 0.008744889 -0.05357137 0.043678183 0.029661467 -0.032138426 -0.043041855 0.0013601824
-0.025216248 0.012759564 0.0033834353 0.0010754366

fc2.weight f4 [10, 100]
00000000: a79a 463d 2c06 4dbc dfe1 db3c 22db 073e
00000010: 4996 02bd 6bc3 25bd 6082 b73d 7f71 5abc
00000020: 2866 193d 70f6 41be b982 183e d0ae 9c3d
00000030: ae05 c9bd f410 15be da2c 39bd 1ad9 943d
00000040: c4f1 e0bd 2bf4 ccbd b287 6cbd 0fe8 24be
00000050: ae87 09be 99e5 be3d 05f4 8f3d f736 82bd
00000060: f73a a0bd 0262 bd3a 7fb3 05be 11bd 433c
00000070: ecb1 06be deb5 04be 7317 b33d 3fee 123e
00000080: 6e6a 11be adde 283d 9f78 e73d 8a64 ce3d
00000090: d542 efbd eb45 16be b338 ce3d 537d db3d
000000a0: d84d 90bd dcd8 a5bd 7cee 4b3c 29d7 c7bd
000000b0: f34e a63d 6f11 193e 51b5 4dbc ed9d c53d
000000c0: 2d9a f93d 1ab0 1a3e 7d12 5b3d 3ed2 07be
000000d0: 2310 673d f47d 40be 8368 0cbe 2313 5bbd
000000e0: d43d 183e 71d9 4bbc 31ad 003c fa55 1a3e
000000f0: dc5a cf3d c4af e4bd 7356 913d e4e6 9bbd
00000100: a397 21be 7be9 bcbd ae2c 4bbd b165 b9bd
00000110: b96e cebd bd13 0a3e 4539 06be ac16 c33d
00000120: ce0d 373d 8eae 99bd 6b1b 893d a48d 123e
00000130: 8a3a 42bc 5ee2 0d3e 2a20 d53d d94c d73d
00000140: 39d6 fabc f745 50be 871a 073e ae22 053e
00000150: 9218 0ebe ccc8 933d 327c abbd f13e 50bc
00000160: 6f6f 93bd 3b59 e33d 3508 213e f397 b3bd
00000170: c6e6 873d bb07 973d c2b1 22be 5dd2 003d
00000180: fa49 d03c c22a 97bd c803 693d a18c dcbd
00000190: 6dd7 33be a67e d5bd 99ec 91bc d259 71bd
000001a0: 8140 223e fd44 813d 5632 ecbd 2439 853b
000001b0: 896f 1f3e 41fd f6bd 9bff d03d 6d0d 393d
000001c0: 4b1d 783d 2ca8 6c3d c53a 9d3c d733 213d
000001d0: a82d 763d c2ae 033e 9600 063e 8942 45be
000001e0: a9de 5e3d df36 b63d e72a 943b cf97 0b3d
000001f0: c7bd 01bd b7d0 273d 4c48 34bc c3e3 0f3e
00000200: 71de 2fbd 42ac 91bd 21d5 dabd 0870 063e
00000210: 705b a5bd d81d d3bd 4abe 8e3d 070c 87bc
00000220: acbd 9f3d 5132 503d 01d9 33bd 9cf4 313e
00000230: 139c f9bb d9fd 01be 7fac a0bd 62ac fb3d
00000240: ddc4 c9bd e8e7 09bd c64c 1f3e 4b6f ab3d
00000250: 0287 b53d f504 af3d ad24 0ebe b15a 9d3d
00000260: 73f4 3abe 0d30 19be f118 e53b 923c 363c
00000270: 735d 393e aa37 883b 0f70 f13d ecab d6bd
00000280: 4fc1 40be a6d0 edbd 72dc 50bd f7b7 d4bc
00000290: 02e4 683d 0b66 1f3e 02e4 67be bed7 1e3e
000002a0: cfe2 9fbd 4e37 a4bd 9b98 9e3d e695 afbd
000002b0: 8c34 af3c ca71 8d3d 006e 413c fd96 b4bb
000002c0: 750d 1cbe 28e9 babd 5c4e 1ebe bea5 26be
000002d0: 0d8d 09be c29a c8bd fb2f 413a 1619 19be
000002e0: a4e9 133e a4a6 37bd b4ba 273d 46e8 24be
000002f0: 7167 75bd 081a ac3d e532 cfbd 75bf c9bd
00000300: 8381 72bd 9c72 133e 0e51 f93d 8d8e b23d
00000310: 75ff 51be 1289 73bb d65c 8e3d 2fd7 1e3e
00000320: bd50 643d 41d2 febd a3a4 013e 4cba 0dbe
00000330: cd63 be3d b6e8 0cbe c9a7 033c adf5 2e3e
00000340: 3800 2dbd 2f35 50bd 1aae 8c3d 31d3 223c
00000350: aa03 ebba 285a 8ebd 8d7f 813c 7d7a 13be
00000360: 1bff 293e 5344 77bd ccd4 0abe 511e 25bb
00000370: ab82 363d ec72 9e3d 22ae d03d e9a1 4f3d
00000380: c46e 85bd 802b e5bc 56a3 a43d 2741 e3bb
00000390: f3d0 343e be19 9d3c 169e 4a3d 1d32 103e
000003a0: 6577 dbbc bcc6 e5bd 555a f3bb 4dd8 dd3d
000003b0: bcfb 8d3d da2d c9bc b35e b2bc ba70 053c
000003c0: 57ca 1fbe eb0f 48bd 6b3c a83d 645c f9bd
000003d0: 742a 54bd bfcd b53d e65e 10be 38fc ddbd
000003e0: f9aa 053e 2877 4ebd a54d 623d 11ba f83d
000003f0: 2a13 17be 0a38 53be 5be2 c63d ba18 12be
0.04848733 -0.0125136785 0.026841102 0.13267186 -0.031881604 -0.04046957 0.08960414 -0.013332724
0.03745094 -0.18941665 0.14893617 0.0765053 -0.098155364 -0.14557248 -0.04520879 0.07267971
-0.10983613 -0.10007509 -0.057746597 -0.16104148 -0.13430664 0.09321136 0.07028965 -0.0635814
-0.07823747 0.0014448764 -0.13056754 0.011946932 -0.1315381 -0.12960002 0.08744707 0.14348696
-0.14200756 0.041227985 0.113023035 0.1007777 -0.11682669 -0.14675109 0.10069408 0.10717263
-0.070460975 -0.08098003 0.012446996 -0.097578354 0.08120527 0.14948057 -0.012555436 0.096492626
0.1218761 0.1510624 0.05348443 -0.13263795 0.056411874 -0.18798047 -0.13711743 -0.053485047
0.14867336 -0.012441979 0.007853792 0.1507186 0.10124752 -0.11166337 0.07096567 -0.07612398
-0.15780501 -0.0922422 -0.049603157 -0.09052599 -0.100797124 0.13484092 -0.13107784 0.09525809
0.0446909 -0.07503997 0.06694683 0.14311844 -0.011854777 0.13855883 0.104065254 0.105127044
-0.030619727 -0.2033919 0.13193713 0.1300151 -0.1387656 0.07216033 -0.08373298 -0.012710319
-0.07198989 0.11101004 0.15725787 -0.087692164 0.066358134 0.07374521 -0.15888122 0.031450618
0.0254259 -0.07381202 0.05688837 -0.1076901 -0.17562647 -0.10424547 -0.017813014 -0.05892355
0.15844919 0.063119866 -0.11533038 0.0040656496 0.15569891 -0.12060023 0.10205003 0.04517882
0.06057481 0.05777757 0.019193063 0.03935608 0.060102135 0.12859634 0.13086161 -0.19263662
0.054411564 0.088971846 0.004521716 0.034080323 -0.031675126 0.04097053 -0.011003565 0.14051728
-0.042936746 -0.07112934 -0.10685182 0.13128674 -0.08074081 -0.103084266 0.069698885 -0.016485227
0.07799849 0.050829235 -0.043908123 0.17378467 -0.0076174824 -0.12694491 -0.07845401 0.12288739
-0.09852002 -0.03366843 0.1555663 0.08370837 0.08863641 0.08545867 -0.13881178 0.07683314
-0.18257312 -0.14959736 0.0069914986 0.0111228395 0.18102054 0.0041570263 0.117889516 -0.1048201
-0.18823741 -0.11612062 -0.050991483 -0.025966628 0.05685807 0.1556627 -0.22645572 0.15511987
-0.07806932 -0.08018361 0.07743951 -0.08573513 0.021387361 0.06906469 0.011806011 -0.0055111633
-0.15239508 -0.09126502 -0.15459579 -0.16274163 -0.13432713 -0.09795143 0.00073695154 -0.14950976
0.14444596 -0.044836655 0.04094954 -0.1610423 -0.059913103 0.084034026 -0.10117129 -0.09850971
-0.059205543 0.14399189 0.12173663 0.08718596 -0.20507605 -0.0037160558 0.06951301 0.15511774
0.05574106 -0.124424465 0.1266046 -0.13840598 0.09296379 -0.13760647 0.008035609 0.17085905
-0.042236537 -0.05083197 0.06869145 0.009938047 -0.0017930169 -0.0695079 0.015807891 -0.14402194
0.16601221 -0.060367893 -0.13557738 -0.0025195072 0.04455821 0.07736763 0.10189463 0.05069152
-0.065152675 -0.027974844 0.08038966 -0.006935257 0.17657833 0.019177314 0.04946717 0.14081617
-0.02679033 -0.11219546 -0.00742654 0.10832272 0.0693278 -0.024557997 -0.021773672 0.008144552
-0.1560453 -0.048843306 0.08214649 -0.12175825 -0.0517983 0.088771336 -0.14098701 -0.108391225
0.13053502 -0.050406605 0.05524983 0.12144864 -0.14753404 -0.20626846 0.09711143 -0.14267245

fc2.bias f4 [10]
00000000: c60a b5bc 54c5 26bd 8d15 d13c 79f0 bbbd
00000010: 3e0c a5ba be65 a6bd c908 943c 7ae6 3ebc
00000020: ad46 033e e44f 6dbd
-0.022099864 -0.04071553 0.025522972 -0.09176726 -0.001259215 -0.081248745 0.018070595 -0.01165163
0.1281993 -0.057937518
